mlruns/1/models/m-bbaa150213d8427ca4f7353783870d10/artifacts/data/model.pth (torch, 19095 bytes, 9 tensors)

weight f4 [64, 15]
000000 a4 42 0a be 48 34 82 3d 72 20 18 be 01 54 75 3d
       -0.13501984 0.06357628 -0.14856127 0.059894565
000010 92 9b 67 be 51 e7 00 3f 39 7e d2 bd 16 ef 1a be
       -0.22617939 0.5035296 -0.10277981 -0.15130267
000020 46 85 49 bd ae 4a 5a be 64 b6 09 3e 2a f0 2b 3c
       -0.049199365 -0.2131755 0.13448483 0.010494271
000030 71 22 85 3e a0 0e 7e 3e 5b e0 b6 3e a1 43 bc bd
       0.2600284 0.24810266 0.35718045 -0.09192587
000040 d0 00 93 3e d3 e5 b2 be 2c 56 28 bd 70 cd 8d be
       0.28711557 -0.34940967 -0.041097805 -0.276958
000050 05 1e 65 3e 7a 38 56 3e 47 35 16 3d d2 f8 3f be
       0.22374733 0.20919982 0.036671903 -0.18747261
000060 8b 59 44 bc 21 f5 1b be 03 9d d2 3e a5 66 d3 bd
       -0.011984239 -0.15230228 0.41135415 -0.10322312
000070 5c 6d 57 3d e4 8c 70 be 61 b0 26 3e d7 03 dc bd
       0.052594528 -0.23491246 0.1627822 -0.1074292
000080 d5 96 b2 bd 5e 16 57 be e5 8c 49 3e af 34 3c 3e
       -0.08720175 -0.21004626 0.19682653 0.18379472
000090 cc 9a dd 3d 88 73 1b be 58 63 82 be f1 8b 2a be
       0.10820541 -0.1518079 -0.25466418 -0.16654946
0000a0 b4 19 1a bd bf 44 ea bc d1 22 ac 3d 9b ad 93 3e
       -0.03762217 -0.028597234 0.08405078 0.28843388
0000b0 6f 03 0a 3e 46 ce 56 3d 7c 60 82 be 6c 6a 59 3d
       0.13477872 0.05244281 -0.25464237 0.053080007
0000c0 e2 53 12 3e 8f f8 88 3e dd f4 11 be 73 73 6f be
       0.14289811 0.26752135 -0.14253564 -0.23383884
0000d0 df 44 9e be f7 3f d0 3d 45 c4 02 3e 7a 50 b0 bd
       -0.3091192 0.1016845 0.12770183 -0.086091
0000e0 f4 15 be bd bf 4c 43 3a ef 83 bc be 96 3f 40 3d
       -0.09281531 0.0007450096 -0.36819407 0.04693564
0000f0 49 4d ce bc 27 cf b4 3a 58 be 5f bd bb ec 09 bd
       -0.025183337 0.0013794646 -0.054624885 -0.03367303
000100 f8 b1 93 3d 3a 98 d0 3e fd b4 91 3d 05 53 ad 3e
       0.07211679 0.4074114 0.07114599 0.338524
000110 5e 12 97 be cf 93 2e be 2b 8a 8c 3d b4 2f 1e 3e
       -0.295062 -0.17048572 0.06862291 0.15447885
000120 ef cb 55 bd e4 c3 a4 bd 64 b9 b5 be 7f 83 ed 3b
       -0.05219644 -0.08045176 -0.35493004 0.0072483416
000130 5d 33 8e bb 25 0b b1 bd 71 09 1c bb 21 c5 a6 bd
       -0.004339619 -0.08644704 -0.0023809338 -0.08143068
000140 61 21 27 3c c3 f4 a3 bc c7 20 4b be 2f 75 5f bc
       0.010200829 -0.020014172 -0.19836722 -0.013638779
000150 58 19 b9 3b 93 ee 9c 3c fa 5f f2 3e af f1 ef bc
       0.005648773 0.01915673 0.4733885 -0.029290048
000160 ca 40 07 3d 59 a2 05 bf 63 a8 7b bc cb 4a 29 3c
       0.033020772 -0.5220085 -0.015359971 0.010332773
000170 30 5d 24 3e 27 e5 0d 3c 90 cc 8f bc ab 8a 92 bb
       0.16051173 0.008660591 -0.017553598 -0.004472097
000180 84 8c 6d 3c fa a2 21 be 23 42 c7 39 8e 4b 71 bc
       0.014498834 -0.15784827 0.00038005513 -0.014727486
000190 bd c6 04 3c 22 2f e3 3e 41 62 37 3d 6c c2 dd 3b
       0.0081040235 0.44371897 0.044771437 0.0067675617
0001a0 bc 21 e5 bd 46 0f 2d 3e d7 00 c6 3a e3 f8 4a be
       -0.11188075 0.16900358 0.0015106451 -0.19821505
0001b0 c5 bb 8c be c5 73 77 bd 39 b9 e2 bd a1 76 d3 bc
       -0.27487007 -0.06041314 -0.11070485 -0.025813403
0001c0 39 f3 b7 3e 0c 0b 01 be 91 d5 64 3d 91 01 76 3c
       0.35927752 -0.1260187 0.055867735 0.015015022
0001d0 8a 30 0d bf ab f3 fe bd bf db b3 3d 35 5f 3c bd
       -0.5515219 -0.1244882 0.087821476 -0.045989234
0001e0 8c 0e 5a be b0 8e 36 bc 91 44 1f bd f2 5a 8a 3b
       -0.21294612 -0.011142418 -0.03888375 0.0042222673
0001f0 77 46 59 3e 60 ad ee bd 4c 32 91 3e c8 97 70 bd
       0.21218286 -0.116541624 0.28358686 -0.0587385
000200 be 2c 14 3d 3d 54 09 be db a5 da 3d 15 de 53 bc
       0.036175482 -0.1341104 0.10676166 -0.012931366
000210 a4 7c b6 3c 8b 01 86 be 60 25 37 3e c7 e2 88 bd
       0.02227623 -0.26173052 0.17885351 -0.06683879
000220 95 3d 32 be 0d b6 8e be 87 c3 4e be f2 45 4a bd
       -0.17406304 -0.2787327 -0.20191775 -0.04938311
000230 72 db 24 3e 79 47 03 bd ba fe a2 bd 17 12 1d be
       0.16099337 -0.032050584 -0.079587415 -0.15338932
000240 b2 16 ff bd 18 97 8f be fd f8 93 3d 66 78 91 3d
       -0.12455501 -0.28044963 0.07225225 0.07103042
000250 0c a9 1d 3d d8 6f 7b 3e ad d6 76 bd 97 e1 0a bd
       0.038491294 0.24554384 -0.060263325 -0.033906545
000260 ff b1 b5 bd a1 24 f1 3d 49 e0 0b 3e 07 56 bf 3e
       -0.08871841 0.117745645 0.13659777 0.3737032
000270 bd e3 40 3e 08 b7 6a 3d 38 ca 21 be f0 90 2a 3c
       0.18836875 0.05730346 -0.15799797 0.010410532
000280 32 93 50 3c fb 1c 22 3e 6e 72 a3 bd cf 90 42 be
       0.012730407 0.15831368 -0.0798081 -0.19000553
000290 80 99 d4 be 61 76 5f be 8b 97 18 be 9a 83 21 bb
       -0.4152336 -0.21822502 -0.14901559 -0.002464509
0002a0 c9 3e 3b bd c2 ef 20 3d a3 da c5 bd f7 40 df be
       -0.045714173 0.03929115 -0.09660842 -0.43604252
0002b0 84 8a 62 bd 8e da 92 bd 7e f2 35 3e 2c 5c 95 be
       -0.05530788 -0.07170592 0.17768285 -0.29171884
0002c0 76 85 dc 3e 45 58 83 3d 0f f2 14 bd 24 b8 1b 3e
       0.43070573 0.064133205 -0.036363658 0.15206963
0002d0 dd d1 40 3d 7a 8f a1 be 54 7b b0 3d 5b 94 12 be
       0.04707514 -0.31554776 0.08617273 -0.14314406
0002e0 e1 50 9f be ee ae 23 be 97 5c 81 be 70 78 ee 3d
       -0.31116393 -0.15984699 -0.25265953 0.116440654
0002f0 a1 19 cb 3d ec d0 89 be 50 d9 1c be 21 45 b3 3d
       0.09916998 -0.26917207 -0.15317273 0.0875342
000300 38 ed 22 3d 32 e9 54 bd 0e a5 03 be 57 e8 87 3c
       0.03977701 -0.051980205 -0.12855932 0.01659028
000310 29 43 42 3e b7 c7 f8 bd 91 15 fd bd bb 54 f2 3d
       0.18970932 -0.121474676 -0.12357629 0.11832567
000320 39 e0 b4 3d da 0e 32 be a0 a1 5f 3e 7c 65 7b be
       0.088318296 -0.17388478 0.21838999 -0.24550432
000330 4d 8e 2a be 16 4e 22 3e cd e3 b9 3d 80 e8 b6 3e
       -0.16655846 0.158501 0.09076653 0.35724258
000340 5c b0 79 3d 48 7f 12 be 90 48 bd 3d 26 60 91 3e
       0.060959205 -0.14306366 0.09242356 0.28393668
000350 43 76 35 be de 2e 91 be 57 7b 36 bd f4 b4 5b bd
       -0.17720895 -0.2835607 -0.04455122 -0.053639367
000360 44 31 3e bd be b4 fe bd 98 73 57 3e af f6 1d 3d
       -0.046433702 -0.124368176 0.2104019 0.038565334
000370 57 50 bc bd 07 20 cf bd 4b f0 de bd ba 83 c7 be
       -0.09195011 -0.101135306 -0.10885676 -0.38967687
000380 16 7a 30 3e 50 21 7c be ba 2e 26 bb e5 7f 1c 3e
       0.17234072 -0.24622083 -0.002535744 0.15283163
000390 36 e5 93 3c 19 b2 2a 3d ff 94 9e bd 5b 34 bb 3d
       0.018053632 0.041673753 -0.077432625 0.091408454
0003a0 3b 01 41 3e ac c3 50 3d 58 7a b1 3d 2e 6c be 3d
       0.18848126 0.050967857 0.08665913 0.092979774
0003b0 2c ec 20 bf 66 6a da 3d 0b df 83 3d 8f 62 d9 3d
       -0.6286037 0.10664825 0.064390264 0.10614502
0003c0 f8 22 76 bd 20 42 4c 3e c5 21 a4 3b 17 9f 4e 3c
       -0.060091943 0.199471 0.0050089085 0.012611172
0003d0 f3 38 5d be 30 50 3c 3e ee 68 ea bc 12 60 9e be
       -0.21603756 0.18389964 -0.028614487 -0.3093267
0003e0 b9 1a 38 39 ff c2 b7 3e 39 b8 77 bd 08 75 bc bb
       0.00017557562 0.35890958 -0.060478423 -0.005751256
0003f0 6e 2e ac 3e c2 61 f8 3d cd 3f 18 3d 1f ef aa bc
       0.33629173 0.12128021 0.03717022 -0.020865975

bias f4 [64]
000000 b0 cd 1a be a5 22 b7 3e 7c ba 19 3e 36 02 c6 3d
       -0.15117526 0.3576862 0.15012544 0.096683905
000010 f1 2d 16 be f4 92 fe be 75 3c 30 bf 90 29 55 3e
       -0.14665963 -0.4972149 -0.6884225 0.20816636
000020 7c 2a 1c bf 88 94 0c bf 84 01 e7 bd d0 9a 12 be
       -0.61002326 -0.5491414 -0.11279586 -0.14316869
000030 32 5c 3d 3e de da 87 be 52 ed da be c2 d3 53 be
       0.18492201 -0.2653417 -0.42759186 -0.20686248
000040 a2 a5 8d be ad a0 27 bf 85 63 2e bf 34 a6 bc be
       -0.2766543 -0.65479547 -0.68120605 -0.36845553
000050 49 16 d4 be 35 5f ff be ba a0 93 bd 53 58 31 bd
       -0.41423252 -0.49877325 -0.072083905 -0.043297123
000060 dc 03 ff bd 53 e7 dd bc 34 3c ee be 14 be a4 3a
       -0.12451908 -0.027087843 -0.46530306 0.0012568855
000070 fa 8e 0c bf e1 62 e1 be d6 f1 60 bd 35 2a 1d bf
       -0.54905665 -0.4402075 -0.054918133 -0.6139253
000080 e1 36 6f be 35 6c fe bd 02 3d bc 3e f2 c3 2e be
       -0.23360778 -0.124229826 0.36765295 -0.17066935
000090 cd 88 f5 bd 1f 84 bf 3d 15 40 f2 be 8c 67 2e be
       -0.11988983 0.09351372 -0.47314516 -0.17031687
0000a0 88 95 6e be 45 ee ae be cf 8e 85 3d 70 76 ad be
       -0.23299229 -0.3416616 0.06521379 -0.33879423
0000b0 31 a9 c1 be 03 fb 28 bf be 93 42 be 85 63 31 be
       -0.37824395 -0.66008013 -0.19001672 -0.1732312
0000c0 96 fe ad be b1 dc f0 bb df 51 47 be 67 c7 45 be
       -0.33983296 -0.007350527 -0.19464825 -0.19314347
0000d0 43 00 56 be 73 78 95 be fa ec 31 3e 06 80 59 be
       -0.20898537 -0.29193458 0.17375556 -0.21240243
0000e0 53 e9 22 be de 0e 00 bf 9c 3c 14 3d 40 1a 2b bf
       -0.15909319 -0.50022686 0.036190614 -0.6683693
0000f0 75 73 4b 3e f3 e8 66 bc d4 d5 a5 3c 54 c5 1d bf
       0.19868262 -0.014093625 0.020243563 -0.61629224

weight f4 [64]
000000 e3 82 8d 3f 8b ad 88 3f d7 9b 82 3f bc 5d 89 3f
       1.1055568 1.0677961 1.0203809 1.073173
000010 2c a9 80 3f 68 be bf 3f 6e 41 ae 3f 8c 43 86 3f
       1.0051627 1.4979982 1.3613718 1.0489364
000020 b7 1f 9d 3f 3a a8 99 3f e1 4a 85 3f 93 a6 7e 3f
       1.2275304 1.2004464 1.0413476 0.9947292
000030 31 41 87 3f 64 4f 8d 3f c1 0d b0 3f 35 9f 98 3f
       1.056677 1.1039853 1.3754197 1.1923586
000040 5c 8b 81 3f 6e 77 a8 3f c2 7b a4 3f 4d b0 a1 3f
       1.0120654 1.3161447 1.2850268 1.2631928
000050 31 b9 c5 3f cf 43 7a 3f db fb a4 3f a1 63 9e 3f
       1.5447141 0.9775972 1.288936 1.2374154
000060 4d 6f 8a 3f e7 4b 82 3f 6e 31 bc 3f fa 79 a8 3f
       1.0815216 1.0179414 1.4702585 1.3162224
000070 89 87 85 3f a8 57 66 3f 8a 84 84 3f 34 9b 85 3f
       1.0431987 0.899775 1.0352948 1.0437989
000080 fe 6f 90 3f 0c 2e 9d 3f dd fa 97 3f d1 a4 98 3f
       1.1284177 1.2279677 1.1873432 1.1925298
000090 51 a0 90 3f 9f 81 88 3f 75 50 9d 3f 58 54 83 3f
       1.1298925 1.0664557 1.2290179 1.0260115
0000a0 fe 86 98 3f 50 f8 a8 3f 54 1d 63 3f 95 09 91 3f
       1.1916196 1.3200779 0.88716626 1.1331049
0000b0 21 b0 d9 3f b7 92 c1 3f 6d 8d 80 3f 0e e3 6d 3f
       1.7006875 1.5122899 1.004316 0.9292458
0000c0 7f 3d b1 3f 98 f5 a3 3f 43 d5 9c 3f fb a1 92 3f
       1.3846892 1.2809324 1.2252582 1.1455683
0000d0 11 88 77 3f 4c bb 74 3f e1 a0 89 3f 64 1a 92 3f
       0.96691996 0.9559829 1.0752221 1.1414304
0000e0 1c 38 94 3f 66 0b a5 3f 48 06 8d 3f 12 f6 c1 3f
       1.1579623 1.2894104 1.1017542 1.515322
0000f0 a3 a1 85 3f 4e fe a3 3f 5d f2 98 3f c2 61 fd 3f
       1.0439953 1.2811983 1.1948963 1.9795458

bias f4 [64]
000000 e2 45 9c 3e d4 ac e4 3b a2 0b 88 3e 4a 87 9a 3e
       0.30522066 0.0069786105 0.26571375 0.30181342
000010 e0 dd c5 be ba d3 72 bd ed d2 87 be 38 08 d7 3d
       -0.3864584 -0.05928395 -0.2652811 0.104996145
000020 0e b0 be 3e 4b b8 8a 3d d9 ea 15 3a 2f 52 9b 3e
       0.37243694 0.06773432 0.0005718894 0.3033614
000030 bd 5f 87 3d 6f 85 39 be 2f 4f 1e 3e 2e a9 77 3e
       0.066100575 -0.18117307 0.15459894 0.2418563
000040 d3 9b ce 3e 38 3f 9f be 31 8a 87 bd aa 4c 61 3e
       0.4035326 -0.3110292 -0.06618155 0.22001901
000050 0c d4 ef 3d a6 36 a1 be b8 03 4a 3e 5d 63 26 bd
       0.117103666 -0.31487006 0.19727981 -0.040622104
000060 11 05 2c be ff 9c 13 be 2b 18 af bd b5 bf dd 3b
       -0.16798808 -0.14415358 -0.085495315 0.006767238
000070 e1 fe 3f be ae 38 c9 be 80 43 71 bd db 76 aa be
       -0.18749572 -0.39301056 -0.058902264 -0.33293805
000080 17 13 a5 3d 4d 3f 8c 3e be 8a b4 3e bc c8 e6 bc
       0.08060282 0.27392045 0.35262102 -0.02817189
000090 21 ad 76 3e 37 fe c6 3e b5 c5 b5 3e a1 ae 75 be
       0.24089481 0.38865826 0.355024 -0.23992397
0000a0 e6 32 55 3e 1d a3 87 3e 67 b2 63 3e ea 12 49 3d
       0.20820197 0.26491633 0.22236024 0.049090303
0000b0 96 0d b3 3c 5e 9e 30 bd 5b 01 89 3e 09 d9 b1 be
       0.021857064 -0.04311978 0.26758847 -0.34735897
0000c0 5e c4 89 3e 28 ca 20 be 3a 75 48 3e 9c bf 39 3e
       0.2690763 -0.15702116 0.19575968 0.181395
0000d0 ca 83 9f bd ee 90 33 be b5 aa 48 be 2e 01 e3 3d
       -0.07788809 -0.17535755 -0.1959637 0.110842094
0000e0 8e e5 8f 3d 28 e2 c2 bd df a1 79 3e 05 fe ac bd
       0.07026206 -0.09515792 0.24378155 -0.08446888
0000f0 bb c2 31 be 08 82 bd 3d 74 83 04 bd 7e 58 8b be
       -0.1735944 0.09253317 -0.032351926 -0.27215952

running_mean f4 [64]
000000 12 3f 96 3e 0a 58 0f 3f 56 8d ae 3e b2 c7 aa 3e
       0.29344994 0.5599371 0.34092206 0.3335548
000010 03 e7 52 3e b8 00 36 3e b1 ff 8f 3b c5 bb ea 3e
       0.20595936 0.17773712 0.0043944945 0.45846382
000020 17 68 2f 3d 03 3d a7 3d f5 1c 5d 3e a3 e6 82 3e
       0.042823877 0.08165934 0.21593077 0.25566587
000030 f7 5f c3 3e 8e 4f 09 3e e3 5c fd 3d 7a 81 a0 3e
       0.38159153 0.13409254 0.12371232 0.31348783
000040 05 8f 30 3e ad da 9d 3d 22 05 83 3c d2 94 04 3e
       0.17242058 0.07707725 0.015993658 0.12947395
000050 38 8f 6b 3e 41 1a b0 3d b2 e4 95 3e 56 4e b6 3e
       0.23003852 0.085987575 0.29276043 0.3560664
000060 8b 21 48 3e 64 3d 98 3e 17 e1 21 3e 7a 4e a1 3e
       0.19544046 0.29734337 0.15808521 0.31505185
000070 ea 32 29 3d 18 26 f9 3d af ce 84 3e 11 c0 c2 3c
       0.04130832 0.12165469 0.25938937 0.023773225
000080 34 2d 78 3e f9 ab 8b 3e bf 82 1d 3f 21 89 d1 3e
       0.24235994 0.27279642 0.6152763 0.40924934
000090 46 89 c5 3e 5c c8 c7 3e 89 e8 d3 3d e1 ee 88 3e
       0.38581294 0.3902005 0.10347087 0.2674475
0000a0 55 28 76 3e 57 dc 17 3e d3 b2 bd 3e 22 5e 15 3e
       0.24038823 0.14830147 0.37050495 0.1458669
0000b0 98 f8 78 3e 50 b6 9d 3c 45 cc 3b 3e dd 7e 6e 3e
       0.24313581 0.019251972 0.18339641 0.23290582
0000c0 7c 04 11 3e 03 0a a1 3e f0 5f 2d 3e d9 67 4d 3e
       0.14161867 0.3145295 0.16931129 0.20059146
0000d0 b3 f4 85 3e 93 a6 28 3e 84 d2 cc 3e 5d 8e c3 3e
       0.26163253 0.16469793 0.4000436 0.38194552
0000e0 ef 3a b6 3e 0d ca 04 3e e2 db a2 3e b9 f1 4e 3d
       0.35591838 0.12967701 0.31808382 0.050523493
0000f0 55 66 cd 3e 35 c5 e0 3e f2 12 b9 3e 22 cb 03 3e
       0.40117136 0.43900457 0.36147267 0.12870458

running_var f4 [64]
000000 4f af 5b 3e e5 aa b5 3e 81 84 3b 3e 31 ae 40 3e
       0.21453594 0.35481945 0.18312265 0.18816449
000010 4c 8c 0e 3e 4d ad 35 3d 49 da b6 3a 9f ed ae 3e
       0.13920707 0.044354726 0.0013950552 0.34165666
000020 ae c7 a5 3c 82 79 34 3d 85 94 09 3e 6a 3c 2a 3e
       0.020236816 0.04406119 0.13435562 0.16624609
000030 ab ad 72 3e c1 8f 91 3d ea 50 9d 3d da e7 83 3e
       0.23699062 0.07107497 0.07681449 0.25762826
000040 a6 8a c3 3d ad 28 5f 3c c5 9c 32 3b 29 77 95 3d
       0.095479295 0.013620538 0.0027254086 0.072981186
000050 7d 62 8b 3d db 79 44 3d 2d b9 48 3e 56 ad cb 3e
       0.068058945 0.047967773 0.19601889 0.39780682
000060 86 ef dc 3d d6 25 8b 3e 96 0a 3f 3d f1 93 3b 3e
       0.10787873 0.27177304 0.046640955 0.18318154
000070 6b 20 be 3c e2 ff b5 3d 69 4a 20 3e e9 f2 32 3c
       0.023208817 0.088866964 0.15653385 0.010922172
000080 29 c3 3a 3e 4b 0c 38 3e 64 67 13 3f 74 45 49 3e
       0.1823851 0.1797344 0.57579637 0.196554
000090 6d 21 a7 3e 8b 10 84 3e 6d 82 70 3d 9b 14 51 3e
       0.3264269 0.2579387 0.058718134 0.20418017
0000a0 30 2c 31 3e e9 9b bb 3d c4 c1 6a 3e 37 b6 a3 3d
       0.17302012 0.09160597 0.22925478 0.07993739
0000b0 21 ae 95 3d ca 82 5d 3b 4c c9 da 3d de d2 39 3e
       0.07308603 0.003379988 0.106829256 0.18146846
0000c0 a3 c2 9e 3d 85 a4 96 3e 58 8f bc 3d 83 db eb 3d
       0.07751968 0.29422393 0.09207028 0.11516478
0000d0 30 f8 54 3e 9d 3e 01 3e 0f ea a3 3e 0d 42 c1 3e
       0.20797801 0.12621541 0.3201451 0.37745705
0000e0 c0 25 aa 3e da e2 76 3d 67 02 47 3e 2b 0c 57 3c
       0.33231926 0.060274936 0.1943451 0.01312546
0000f0 44 4f 89 3e 50 70 63 3e f1 bc 7d 3e 0a 3e c0 3c
       0.26818287 0.22210813 0.24779107 0.023467083

weight f4 [32, 64]
000000 9e 4a 3e 3d 22 97 48 3e 68 ca 05 bd 43 3c 20 be
       0.04645788 0.19588903 -0.032663733 -0.15647988
000010 f2 76 ef 3d fb 28 82 be 92 8f 68 bc 27 ef 96 bd
       0.11692609 -0.2542189 -0.014194386 -0.073698334
000020 83 0b 92 be eb 0a 75 3d 4b e4 13 bd ea 0f ab be
       -0.28524408 0.059824865 -0.03610639 -0.3341058
000030 2b a6 a0 3c 1f 9d d4 3d 94 59 d8 bd 83 64 48 3d
       0.019610485 0.10381531 -0.10563961 0.04892398
000040 d2 a1 9b bd ce 14 80 be ee 92 1d 3e 2b db 48 3d
       -0.07599224 -0.25015873 0.1538808 0.04903714
000050 d7 df 16 bf 0c ea 12 bc 1f 59 76 be c7 cf 62 3e
       -0.589353 -0.008966934 -0.24057434 0.22149573
000060 a6 81 c1 bb 6b bb 2b 3e 09 ba 90 be 93 ac 67 be
       -0.005905348 0.16770713 -0.28266934 -0.22624426
000070 21 c9 5e 3c 58 42 5f 3d dd 89 34 bd da d0 60 3d
       0.013597758 0.05450663 -0.04407679 0.054886676
000080 a0 c3 c9 bc b3 14 36 be 26 05 06 bd b0 66 85 be
       -0.024629414 -0.17781334 -0.032719754 -0.26054907
000090 90 e9 f7 bc 6b 6e 8c bd 54 57 88 bc 1d e1 90 3b
       -0.030262738 -0.06856998 -0.016643204 0.004421367
0000a0 70 c1 25 be 94 83 f4 3c 85 82 09 be 2f 9d 33 be
       -0.16187072 0.029847898 -0.13428695 -0.1754043
0000b0 a9 bb 25 bf c9 4c db 3d f2 cb 6d bc 1b 73 03 ba
       -0.6473947 0.10708005 -0.014513956 -0.00050144055
0000c0 28 cd 21 be 44 a0 34 3e da 3a 8d bd 00 72 f2 3c
       -0.15800917 0.17639261 -0.06895991 0.029595375
0000d0 b3 34 95 3d 44 9e 2a 3d 9a 6c e5 3d 85 1b 15 bc
       0.07285442 0.04165484 0.11202355 -0.009100799
0000e0 f7 e0 d6 bc cc e2 77 be 7b 83 ca bd 06 95 de be
       -0.026230318 -0.2420761 -0.09888359 -0.4347307
0000f0 66 60 8b bd 94 23 ef bd 3d f7 d2 bb af de ae be
       -0.06805496 -0.11676708 -0.0064381645 -0.3415427
000100 6e 13 17 3e 79 12 49 bd 99 b5 63 3e 29 9a 8b 3d
       0.14753506 -0.049089883 0.22237243 0.06816513
000110 1b 3b c6 3b a5 3e 93 be 8f 56 e8 3d e4 5b 22 3e
       0.0060495264 -0.2875873 0.11344635 0.15855366
000120 a8 bc 25 be f7 79 2a 3e dd 9d 18 3d fb 2a 82 3c
       -0.16185248 0.16648088 0.037259925 0.015889635
000130 ee 87 7f 3d 74 8c b8 3e 6b 1f b3 3d 4e 84 83 3d
       0.062385492 0.36044657 0.08746227 0.064217195
000140 20 18 c3 bd 4c ea f0 bc a8 a4 8a 3e c4 54 64 3e
       -0.09526086 -0.029408596 0.27078748 0.2229796
000150 d5 04 da be 87 56 2d 3e bc a4 27 3d fb 27 e4 3d
       -0.42581812 0.16927539 0.040928587 0.11140438
000160 af 69 88 bc 1c 00 05 3e ec eb bc bd 81 81 0c be
       -0.016651956 0.12988323 -0.09224686 -0.13721277
000170 b7 39 e8 bc d3 ca 88 3c 0c 3f 09 3d 1a 45 4b 3d
       -0.028347833 0.016698277 0.03350739 0.049626447
000180 c8 a4 53 3a ad 8e 18 be fb 53 ec 3c 76 49 c5 bd
       0.00080735656 -0.14898176 0.028848639 -0.09633152
000190 d9 2c 47 3d f7 ca 93 3c 0e 8d 76 bc 45 c0 7b 3b
       0.048626754 0.018041117 -0.0150482785 0.0038414162
0001a0 f3 5b 3c 3e 8a bd c0 bd 8b 0b 3b bd 17 1a 7a bd
       0.18394451 -0.09411152 -0.045665305 -0.061060037
0001b0 44 b3 2d be 9d 12 81 3e e0 2d ae 3c b5 3b 15 bd
       -0.16962916 0.25209513 0.02126211 -0.036433894
0001c0 5b 91 89 be e3 5e 15 3d 12 82 b2 be 90 6c ac 3d
       -0.2686871 0.036467444 -0.3486486 0.08419144
0001d0 dd e2 a5 3d a6 10 c7 bd 96 28 16 3e 7a 38 97 3d
       0.08099911 -0.09719972 0.1466392 0.07383819
0001e0 7d 0b 82 3c 1a cd 7b bd 39 6b a7 3a c8 1a 87 be
       0.015874619 -0.061474897 0.0012773044 -0.2638762
0001f0 43 ea 0b bd 63 5f 65 be 73 00 54 3e 5b 0c 2c be
       -0.034158956 -0.22399668 0.20703296 -0.16801588
000200 da ec b2 be b7 8c 10 bd 3f b8 34 3d ef 79 c0 3d
       -0.34946328 -0.035290446 0.044121023 0.09398257
000210 43 24 66 be d6 ff ba 3d 43 b5 6f be af dc e7 bd
       -0.2247477 0.09130828 -0.2340899 -0.11321389
000220 38 d4 50 3e 95 87 9a 3e 21 17 2b be 4b 8c 1a 3e
       0.20393455 0.30181566 -0.16708042 0.1509258
000230 7d cd 2b 3e d2 26 a4 be 37 19 86 bd a0 a9 fe 3c
       0.16777606 -0.32060868 -0.06547778 0.031086743
000240 b0 d6 bb bd da 79 19 3e c4 21 3b 3e bf 27 a4 3b
       -0.09171808 0.14987889 0.182746 0.005009621
000250 14 dc 12 3d 05 ac 1c 3d af 50 ee bd c7 1c 37 3e
       0.035854414 0.038249988 -0.11636483 0.17882071
000260 ae dc 69 3e 36 4e c1 bd 87 65 0c 3c 2b 17 9e bd
       0.22838089 -0.09438746 0.008569128 -0.07719263
000270 7b 68 84 be e4 06 e8 bd 04 0a 78 bd 20 9f 92 3d
       -0.25860962 -0.11329439 -0.060556427 0.07159257
000280 c6 88 09 3b 5b a2 74 bd 28 85 bd bd d0 c4 30 be
       0.0020986064 -0.059725147 -0.09253913 -0.17262578
000290 57 f5 2a 3e 26 54 25 3e 01 c5 31 be 04 57 1d be
       0.16695152 0.16145381 -0.17360307 -0.15365225
0002a0 80 90 eb bd 55 04 89 3d 50 a5 98 3e ac 6a ee be
       -0.115021706 0.066902794 0.29813623 -0.4656576
0002b0 03 0a cf bc a4 5b 40 3e ee c1 83 3d eb 16 b3 be
       -0.025273329 0.18784958 0.064334735 -0.34978423
0002c0 2c 8c c5 be 73 6a dc bd 20 3c 7e be 0c d2 bf bd
       -0.38583505 -0.10762491 -0.24827623 -0.09366235
0002d0 bc aa 03 be 27 e8 51 bb 69 78 9d bd 7d 4c 8e bb
       -0.12858099 -0.0032029243 -0.07688982 -0.004342614
0002e0 b1 eb 6b 3d 68 8d a1 bd fb bc e3 3b 6d f2 18 3e
       0.05759782 -0.07888299 0.0069500185 0.14936228
0002f0 22 ae 25 be 4b 20 ff bc b2 05 b4 be 8e 7e d2 3d
       -0.16179708 -0.031143328 -0.35160595 0.10278045
000300 8d 3e 11 be 79 77 06 3d e9 dc 19 3c e0 4a b4 bd
       -0.14184017 0.03282878 0.009391048 -0.08803344
000310 94 c8 4e 3d 28 4d 3f bc 3e 22 38 3e 02 be 9d 3d
       0.050484255 -0.01167611 0.17981812 0.07702257
000320 cf fc 34 be d6 02 f3 3d f8 9c 05 3e b4 53 1e be
       -0.17674564 0.11865775 0.1304816 -0.15461618
000330 17 94 ec 3c 51 cc 32 3e 58 84 23 3d cb 68 8a 3e
       0.028879208 0.17460753 0.039921135 0.27033076
000340 2b 4d dc bd db 0a 0f 3d 45 98 58 3e 82 31 48 3e
       -0.10756906 0.034922462 0.21151836 0.19550136
000350 a2 bf b1 3d 6f d8 3f 3e 64 90 93 bc 39 d8 28 3e
       0.08679129 0.18734907 -0.018013187 0.16488732
000360 2f 72 f6 3d 35 3e 2c 3e 2a dd 8a 3e 74 2f cc 3c
       0.120334975 0.16820605 0.2712186 0.024924971
000370 d3 2e 43 3d 22 c7 d0 3d 63 bb 4c 3e bc b2 19 3e
       0.047652077 0.101942316 0.19993357 0.15009588
000380 8a e3 05 3e 67 fc ab bd ae 32 7f 3e b7 61 89 3d
       0.1307508 -0.08397751 0.24921677 0.06708091
000390 e5 13 b7 bd d1 eb b7 bd ce c9 31 be bb ae 8e 3a
       -0.089393415 -0.08980525 -0.17362139 0.0010885814
0003a0 64 13 ae 3c 1f 91 d4 3d 64 d1 dd 3d 4a e8 4d bd
       0.02124948 0.10379242 0.10830954 -0.050270356
0003b0 c2 ff 8e 3d eb 72 9e 3e 3a 18 aa be 29 41 99 3d
       0.06982376 0.3094705 -0.33221608 0.074831314
0003c0 a6 57 7b be 72 86 3b 3e cf 62 da bc 34 c6 34 3c
       -0.24545154 0.18313006 -0.026658444 0.011033583
0003d0 8c bb ab 3d fb f4 d8 3d 0b 08 14 3e 41 22 7e 3e
       0.08385381 0.10593601 0.14456193 0.24817754
0003e0 23 69 8f 3d e1 7f d6 3d 59 0a e2 39 dc 58 11 3e
       0.07002475 0.1047361 0.0004311379 0.14194053
0003f0 35 e6 74 3d 7b f3 cf 3b b7 2c 4e 3c c1 5a 3b be
       0.059789855 0.006346164 0.012583903 -0.18296339

bias f4 [32]
000000 5c 30 3e be 81 ec e4 be 2d 19 90 3e a5 bd 45 be
       -0.18573135 -0.44711688 0.28144208 -0.19310625
000010 a6 ec b6 be 9d 9d c7 3e 36 94 45 3e bc 4f 1d bf
       -0.35727423 0.38987437 0.19294819 -0.6144979
000020 8a b0 26 3e c8 9a 87 be d1 25 9d 3e 5f 40 cb be
       0.16278282 -0.26485276 0.30692914 -0.3969755
000030 bb 9c 81 be 4b fe 4f 3d 55 7a 25 3e 7b f7 a7 3e
       -0.25314888 0.050779622 0.16159947 0.32806
000040 91 b7 15 3e a0 e0 b1 3c 33 28 bb bd 96 2c a2 3e
       0.14620806 0.021713555 -0.09138527 0.3167464
000050 98 54 7f 3e 8a b4 9d 3d 8d f0 a4 3e 55 7c 1b bf
       0.24934614 0.07700451 0.32214776 -0.6073659
000060 37 69 5b 3e 78 c7 47 3e 4c 3b 7f 3e 32 5c 61 3e
       0.21426855 0.19509685 0.24924964 0.22007826
000070 11 41 d6 3d 9e 0f 29 3e dd c3 65 3e ba 3b 14 3e
       0.10461629 0.16509864 0.22437997 0.14475909

weight f4 [1, 32]
000000 76 cd a3 3e 77 b5 2a 3e 66 b9 86 be 24 c4 76 3e
       0.31992692 0.16670786 -0.26313323 0.24098259
000010 91 26 4a 3e f8 4c 56 be bc e6 a6 be 07 d0 22 3f
       0.19741274 -0.20927799 -0.3259791 0.63598675
000020 f2 e2 dc be 1a 13 9a 3e 07 6a 8a be fb 46 96 3e
       -0.43141896 0.30092698 -0.27034017 0.2935103
000030 d6 5a a4 3e 50 5d c0 be 15 15 33 be 5a 38 d1 be
       0.32100552 -0.37571192 -0.17488511 -0.40863305
000040 fb 1f 6d be 34 ca 47 be 16 79 a3 be 3e 84 3b be
       -0.23156731 -0.19510728 -0.3192832 -0.18312165
000050 7f 4a 38 be 68 c1 5d be 7d 7b 88 be 04 ba 2b 3f
       -0.17997168 -0.2165581 -0.26656714 0.6708071
000060 37 f5 b1 be c3 df 30 be 9c 07 ae be 41 0e 3a be
       -0.34757397 -0.17272858 -0.3399018 -0.181695
000070 96 c9 96 be 0f 5e 15 be 6c 8f 8b be 9f a6 b4 be
       -0.29450673 -0.14586662 -0.2725786 -0.35283372
