mlruns/1/models/m-3e31480b1d78425583ba9ca738c2b5d9/artifacts/data/model.pth (torch, 19095 bytes, 9 tensors)

weight f4 [64, 15]
00000000: f524 843c 0f42 92be 2672 babe 7d82 503d
00000010: cf5a 863d 59e1 0abe ce4c 63bd 5a76 233e
00000020: 8974 3b3e dcfb 25be 70b5 6cbc a432 ad3e
00000030: 6ac7 ddbd 2118 5fbd 3759 713d 7d21 2ebe
00000040: ceb1 5abe e287 74bd 24e8 7c3c 97b3 06be
00000050: 33ab 503e e505 aebc 75c7 b1bd 7d25 883e
00000060: f49a 833e c8ad 483e 6e93 143e ea9d d9bd
00000070: 1ffe 563e 98ff 843d 7897 4bbd e9e2 89bd
00000080: ad63 a83e e035 493e 6e80 a5bd 90b4 a5bd
00000090: 8fed 7fbd 1611 25bd f595 b6be 89ac 713e
000000a0: a18f 373e 37f3 2f3d c369 4fbc cdac 57bd
000000b0: 5d30 9dbd 28bf c2bd 2e06 7abd 514d 5a3d
000000c0: 46dd 45bc b42a e2bd f439 34be 88ef 343e
000000d0: b317 8c3e 9749 b8be f313 90be e645 22be
000000e0: f7c4 a2be fc10 6e3e c0a6 e6bd 02d3 143e
000000f0: b79f c93d 6b66 ecbb 299c eb3e b57f 5abe
00000100: 5396 813e 4d81 9f3d 7d09 613e 14fa 8dbd
00000110: ae29 ebbd b516 48be 84e9 043e 2720 a4ba
00000120: 42f1 dc3d 84cc 083e bfaf 60bd b678 bbbc
00000130: 4abf 403d f0b6 bf3e 0f12 073c 42bc a23d
00000140: 2ac3 8bbd bbc6 57bd 10fb 95be d5cd 87be
00000150: 9344 6dbe 5266 d3bd 057c bcbd 61cf 7ebe
00000160: 555f 27be 8dd8 7cbc 3dfd 303d 483b fd3d
00000170: 4d43 d1be ec5d 0ebe 3411 6fbe 56b9 41bd
00000180: 36c5 0e3e 16be e0bb e094 d63e 716e a53c
00000190: 040e b2bd b0f0 dc3c 3401 a33d 0df6 39be
000001a0: e35c bdbd afbf ee3a e50f 71bc de1f 0abf
000001b0: 8e3e afbb ba28 963b 2a7d d73b d25e b8bd
000001c0: 366f d5ba 7a9a 193f 2527 8dbb b29e 143c
000001d0: b840 fb3b 9f1c 783b d738 b4bd 63e2 373c
000001e0: 10c3 b33d 29a4 193d c359 bfbe fa27 16be
000001f0: e2e0 fabb c25c 17bd 3915 7bbd 2771 793d
00000200: b913 063f cdc7 9e3d 2d6b 27be dcf8 fe3d
00000210: 1688 ee3c 2160 c9bd 849f 583c cd2a 4d3d
00000220: 14eb 9dbe 781c 9ebe 401e 3c3e 884c 84bb
00000230: c4aa 873d 3bfa dcbd da22 653d 0a2e d13e
00000240: 939c 983e c36f ff3d 21ec 5e3d 095d a0bd
00000250: 1aa0 943c 8f65 1abe 20ec 763e 99b0 a33e
00000260: 90e5 42be 650f 0c3c c8c0 34be 5f17 113e
00000270: 335b 17be 5104 0dbc 1a83 dd3e 5b22 50be
00000280: d831 0abe c614 bd3d 6e63 aa3e 3bc2 2abc
00000290: 67a1 1dbe e6b3 04be 4837 92be d28b 3a3e
000002a0: 99fa a63e ff2f a93d 31a3 61be a999 26be
000002b0: 8882 1d3e de92 9fbe 835b 8c3e 9729 eebc
000002c0: 106f a2bd 0804 0b3e 1f2c 3cbe 40fa cbbc
000002d0: 3d7d 03bd 6c82 58bc 2ec9 cdbe 35c5 1f3e
000002e0: 6f11 603d 8984 2ebd 84b3 c3bd 9fc6 ecbd
000002f0: 74b7 ec3e 25b1 44bd 6649 a33d 7e16 0a3b
00000300: b2e4 71bd ea14 213e 4d8b a53d 5f88 ea3b
00000310: 71a6 893d 0d02 6f3d b17f 8d3e 88a1 38bd
00000320: 49b3 d53d 81b4 3e3e 70eb c13c ca99 e13e
00000330: cb65 47be 21a7 5dbe 0093 763d b046 84bd
00000340: 7e8d 5f3e 0d7e c03d f0e6 ffbd 7657 f33d
00000350: 2018 d9bc babc acbe 80a0 083e 4992 eebd
00000360: b863 123e 9265 453e 0a31 ebbc b954 9abc
00000370: 0d79 8f3c a216 56be cdd4 0bbd 7944 59be
00000380: c571 52be 7363 cdbd 4723 433d e1fe a83e
00000390: 4c12 543d 9cef 0d3e 2ef0 e23d 7f0d 61be
000003a0: dc96 81bd 29f1 ecbe 12ca 9fbc 74aa 1a3b
000003b0: e64e 54bc 621f 05be be5c 3fbe b9ae 5cbd
000003c0: ae10 873e 8368 4a3d 3cc7 4f3d 50db 953d
000003d0: 579e 19bc 6a75 8a3d dbec b53d 899c a6be
000003e0: 3a89 40be c7d6 183e a37f 0c3b 6836 bebe
000003f0: 0032 89bc e5d8 4fbe d7ca 843e dd57 01bd
0.016130904 -0.28566024 -0.36415213 0.050905693 0.06560289 -0.13562526 -0.05549317 0.15963116
0.18306173 -0.16209358 -0.014447555 0.33827698 -0.10829051 -0.05446637 0.058922973 -0.17004962
-0.2135689 -0.0596999 0.015436206 -0.13154446 0.20377807 -0.021243045 -0.086806215 0.265911
0.25704157 0.19597542 0.14509365 -0.10625823 0.20995377 0.06494063 -0.049705 -0.06732733
0.32888547 0.19649458 -0.08081137 -0.0809108 -0.062482413 -0.040299498 -0.35661283 0.23600973
0.17925884 0.042956557 -0.012659493 -0.05265503 -0.0767524 -0.095091164 -0.06104105 0.05329639
-0.0120766815 -0.11043301 -0.17600232 0.17669499 0.2736183 -0.35993645 -0.2814022 -0.15846977
-0.31790897 0.23248667 -0.11262274 0.14533618 0.09844916 -0.0072143576 0.46017578 -0.21337779
0.2531 0.07788334 0.21976276 -0.06932464 -0.11482559 -0.19539912 0.12979704 -0.0012521789
0.10788204 0.13359267 -0.054855105 -0.022884708 0.047057427 0.37444258 0.008244052 0.079460636
-0.06824334 -0.05267976 -0.29293108 -0.26524225 -0.2317069 -0.103222504 -0.09203342 -0.24883796
-0.1634496 -0.015432489 0.043210257 0.123648226 -0.4087166 -0.13903016 -0.23346406 -0.04729589
0.13942418 -0.0068585975 0.41910458 0.020194264 -0.086940795 0.026970237 0.07959214 -0.18160267
-0.09246232 0.0018215085 -0.014713262 -0.53954875 -0.0053480333 0.0045824917 0.0065762 -0.090024605
-0.0016283754 0.6000134 -0.004307645 0.009071039 0.007667627 0.0037858856 -0.08799904 0.011223408
0.087774396 0.03751007 -0.3737317 -0.14663687 -0.0076562027 -0.036953695 -0.061299536 0.060898926
0.52373844 0.07752953 -0.16349478 0.1244981 0.029117625 -0.09832788 0.013221625 0.050089646
-0.30843413 -0.30881095 0.18370914 -0.0040374435 0.06624368 -0.10789915 0.05594144 0.40855438
0.29806957 0.12472489 0.05442441 -0.07830245 0.018142749 -0.15077804 0.24113512 0.3197067
-0.19032884 0.008548592 -0.17651665 0.14169072 -0.14780883 -0.008606986 0.43264085 -0.20325606
-0.13495576 0.09232478 0.33278984 -0.010422285 -0.15393601 -0.12959251 -0.285578 0.182174
0.32613066 0.08261108 -0.22034909 -0.16269554 0.15381825 -0.31166738 0.27413568 -0.029072566
-0.0793134 0.13575757 -0.18376206 -0.024899602 -0.03210186 -0.013214689 -0.4019255 0.15602572
0.054704126 -0.042606864 -0.09555724 -0.115613215 0.46233714 -0.0480205 0.07972984 0.0021070535
-0.05905599 0.15730634 0.0808321 0.00715737 0.06721199 0.058351565 0.27636483 -0.045075923
0.104345866 0.18623544 0.023671836 0.44062644 -0.19472425 -0.21645786 0.060198784 -0.06458795
0.21831319 0.09399042 -0.1249522 0.11881916 -0.026500762 -0.33737737 0.13342476 -0.116489954
0.14295852 0.19277027 -0.028709907 -0.018839227 0.017513776 -0.20907071 -0.03413849 -0.21217526
-0.20551212 -0.10028734 0.047641065 0.33006957 0.05177526 0.13860935 0.11080967 -0.21977805
-0.06327602 -0.4627774 -0.019505534 0.0023600133 -0.012958264 -0.13000253 -0.18687722 -0.053877566
0.26379913 0.049416076 0.050727114 0.07317221 -0.00937613 0.06760676 0.08883067 -0.32541302
-0.18802348 0.14925681 0.0021438382 -0.37150884 -0.016747475 -0.20297582 0.25936005 -0.031577934

bias f4 [64]
00000000: 176b b3be baee 4dbe c27a 2b3f 766c 8f3c
00000010: b0e2 d1bd 7190 8a3d d9f6 61bd 5ad0 b9be
00000020: a975 d83d 9704 9abe 946e 6fbd 8bad 56be
00000030: 8b50 a9be 13a7 19be d58c c1be ae71 ae3e
00000040: f4bc c3bd b57c 36be 65cb 06bf fc3c 15bc
00000050: 0eb0 7fbe 9cc5 bbbe 2bd1 ab3d 90fa 6a3e
00000060: 1c12 8a3d c8cb b4be 3121 f93e dd70 60be
00000070: 4a61 9fbe 3f37 75be ac09 c0be 8bbf a7be
00000080: 0906 a2bd 3da3 b93c 242c 01be 8284 473e
00000090: 415e 57bd b643 893e 36a3 03bf 489f 5ebe
000000a0: 4882 273e 6500 99bd 32f5 9bbe cb3d 70bd
000000b0: 5a03 18bc 01ea bb3e 2f61 debe 90c9 07be
000000c0: ea5b 143b 463a 94bd 0420 90be b315 1dbd
000000d0: 2232 5dbd 119c d3be 13f1 9fbe 7027 ea3d
000000e0: dbcb d1be 0094 8b3c d578 47be ec4a 7fbc
000000f0: fb68 c63d 11e1 af3e ae18 9fbd 0477 41be
-0.3504264 -0.20110598 0.6698419 0.017507773 -0.10248315 0.06765831 -0.055167053 -0.36291772
0.10569317 -0.30081627 -0.058455065 -0.20964639 -0.33069262 -0.1500514 -0.3780276 0.34071106
-0.09557524 -0.1782101 -0.52654105 -0.009108778 -0.24969503 -0.366742 0.08389505 0.22947145
0.06741735 -0.35311723 0.48658136 -0.21918054 -0.31128913 -0.23946856 -0.3750738 -0.32763323
-0.07911307 0.022660846 -0.12614495 0.19484141 -0.052580122 0.26809472 -0.51420915 -0.21740448
0.16358292 -0.074707784 -0.30460507 -0.05865268 -0.009278143 0.36701968 -0.4343352 -0.13260484
0.0022637793 -0.07237677 -0.28149426 -0.038350772 -0.05400289 -0.41330007 -0.31238613 0.11433303
-0.40975842 0.017038345 -0.19479688 -0.015581828 0.09687992 0.343514 -0.07768379 -0.18893057

weight f4 [64]
00000000: 09f7 893f d0be 7b3f 33b9 853f a766 8a3f
00000010: dd42 793f 5441 943f c2dc 923f 53b2 ab3f
00000020: 45b2 913f 4230 983f aa5b 813f 7bca 9f3f
00000030: 3149 913f df86 823f c034 923f db58 873f
00000040: ff21 843f 8cde 863f 501d 9f3f 7d36 6c3f
00000050: 79ac 863f 6f27 c93f c285 863f 1045 7d3f
00000060: 231c 5e3f 9231 843f 8a5a 873f 1828 973f
00000070: 8d4c d23f 57cf 5a3f ef19 873f 089b aa3f
00000080: 34f6 9f3f ffb5 803f 6584 8d3f 3931 783f
00000090: 533f 8a3f 311a 463f ffdc 8e3f a5a4 8c3f
000000a0: ab4d 7e3f 17c7 873f 32b3 9e3f 62f9 873f
000000b0: a6c8 653f ad7f 6f3f d8f9 7d3f 6dfe 893f
000000c0: cff3 8c3f 9131 8a3f 231f bd3f 97a3 883f
000000d0: 6342 8b3f 04e7 a53f cdf8 9b3f e810 903f
000000e0: 6e62 923f bca6 863f 1847 6c3f 36a0 723f
000000f0: 6b5e 853f eccd 683f 5a41 7a3f f715 a93f
1.0778514 0.9833803 1.0447143 1.0812577 0.9736765 1.1582437 1.147362 1.3413795
1.1382529 1.1889727 1.0106099 1.2483667 1.1350461 1.0197409 1.1422348 1.0573992
1.0322875 1.0536666 1.243082 0.9227064 1.0521384 1.5715159 1.050957 0.98933506
0.86761683 1.0327628 1.0574505 1.1809111 1.6429611 0.85472625 1.0554789 1.3328562
1.249701 1.0055541 1.1056029 0.9695011 1.0800575 0.77383715 1.1161193 1.0987746
0.9933726 1.0607632 1.2398436 1.062298 0.8975929 0.9355419 0.99209356 1.078077
1.1011904 1.0796376 1.4775127 1.0674924 1.0879635 1.2961125 1.2185303 1.1255159
1.1436288 1.0519633 0.9229598 0.9477571 1.0419439 0.9093921 0.9775597 1.3209828

bias f4 [64]
00000000: c23f 723d bdad 41bd 1cca f33e 9cfa 923e
00000010: ad3b 8a3e 5701 00be 5501 07bc faa8 993d
00000020: 6228 48be efb3 5d3d 9d76 c53d d2a7 a53e
00000030: 092f 5cbe d08a 65bd c87f c73d 5ab1 4a3e
00000040: 4a2f 253e b0ad ec3e 8e11 cd3d d85e 63bc
00000050: abc3 f3be e7e9 313e ac8d d4bd cab3 583d
00000060: 10ab 5fbe 5cdd 89be 4ea7 5f3e 1af4 6a3e
00000070: 50df 623b 69bc 6cbd c3b5 aebd d25a a7be
00000080: d766 083e afa6 843e 9062 9c3e 8ac6 49be
00000090: e2ff 853e c1a9 963d 5051 89bd 3ddc 36be
000000a0: 02c9 853e 616c 8f3e 37ac 743e 5735 063e
000000b0: d3c1 7cbd 4e88 113f f2a2 99bd 1244 98be
000000c0: 2481 a23e 4285 19bd 8274 293e fc54 883d
000000d0: 5ce3 f53d df8f 5d3e d9aa 483d c2ea 1fbe
000000e0: a3bc 8c3e e4b9 c03d 9512 2abe a255 08bd
000000f0: 5f4c d3bd 1d8f fa3e 1500 e63d 23ff 983e
0.059142835 -0.04728483 0.47615135 0.28706825 0.26998654 -0.12500511 -0.008240064 0.07502933
-0.19546655 0.054126676 0.09641764 0.323546 -0.21502317 -0.056040585 0.09741169 0.19794217
0.1613132 0.46226263 0.10013114 -0.013877593 -0.4761022 0.17374383 -0.10378584 0.052905835
-0.21842599 -0.26926696 0.21841165 0.2294468 0.0034617968 -0.05779687 -0.08530762 -0.32686478
0.1332048 0.2590842 0.30543947 -0.19704643 0.26171786 0.07356597 -0.06704962 -0.17857452
0.2612992 0.28012374 0.2389382 0.13106285 -0.061708283 0.5684861 -0.075017825 -0.29739434
0.3173915 -0.0374806 0.1654835 0.066568345 0.12006256 0.21636914 0.048991058 -0.15616897
0.27487668 0.09410456 -0.16608651 -0.03328479 -0.10317301 0.48937312 0.112304844 0.29882154

running_mean f4 [64]
00000000: 6cdd ff3d 657f 393e df76 363f 464a 913e
00000010: 8e2c 8d3e 0024 823e 32b3 1f3e 2df4 213d
00000020: e2d2 6f3e 58c6 eb3d 7377 733e 5c2f 5f3e
00000030: fc99 7f3d 80c8 a53e 5fdb ac3d 9a9d ed3e
00000040: 2b1d 763e 02bd 633e cdeb 913c ac89 d33e
00000050: 7768 d73d 7665 e13c be13 e83e 3d98 d33e
00000060: 9f6f e53e c75c b63d 05f8 013f f7d7 713e
00000070: 5f1b 163d d6cf b73e 6c0e c63d cfb0 783d
00000080: 661d 2a3e 84b1 923e f3bd 1b3e 2a3e ab3e
00000090: 2286 653e f59c 203f 5192 7e3d 38bd 4f3e
000000a0: 37ae bc3e ca87 523e a4dc 263e 2e41 4a3e
000000b0: 8ad3 e43e b32c cc3e 4d0a ae3d 4fc5 103e
000000c0: 1151 903e 3461 733e 9570 fb3c 7ebd 883e
000000d0: ffc7 873e 397f 533d 5a13 0f3e 513d 7c3e
000000e0: fc93 cb3d fd7a 973e 4559 043e 37a9 bb3e
000000f0: 7f30 063f 4c4c d83e 1c7a 883e a773 3f3e
0.12493405 0.18115003 0.7127513 0.2837698 0.27573055 0.2541809 0.15595701 0.039539505
0.23420289 0.115124404 0.23776035 0.2179541 0.06240271 0.32379532 0.08440279 0.46409303
0.24034564 0.2224007 0.017812634 0.41315973 0.10517972 0.0275142 0.45327562 0.41327086
0.44811723 0.089044146 0.5076907 0.2361754 0.036647197 0.35900754 0.096707195 0.060715493
0.16612777 0.2865106 0.15209179 0.33445865 0.22414449 0.627395 0.062151257 0.20287025
0.36851665 0.20559612 0.16295105 0.19751427 0.44692641 0.39877853 0.084980585 0.14137767
0.2818685 0.23767549 0.030693332 0.2670707 0.26519772 0.051635 0.13972226 0.24632765
0.09940335 0.2958602 0.12924679 0.36652538 0.5241775 0.4224571 0.26655662 0.18696462

running_var f4 [64]
00000000: 4f7f 903d 7b7d d03d e59d 533e 16e3 243e
00000010: ca6e 373e 2b33 eb3d f6e9 803d eece 053d
00000020: 7eff c43d 4e33 793d dad0 103e 9c82 133e
00000030: 080c 133d 8ea2 863e 38ff 293d a3ce 713e
00000040: 36ab 0c3e 2189 1a3e d52d 503b 6de4 ae3e
00000050: 9372 543d 5cbf e53c efcb d23e d23a 813e
00000060: f431 c33e b0fd 4a3d e201 223e c453 2d3e
00000070: c7e2 d23c e038 b43e ea46 513d 1cfd 123d
00000080: e817 933d a9c4 393e a10d 6b3d 6b02 2d3e
00000090: 8b3d d93d 116f 083f 14cb d63c 3644 0b3e
000000a0: e54c 573e db69 d53d 6561 d63d 5810 8c3d
000000b0: 2aac d83e daa6 d23d 581c 3a3d ed40 823d
000000c0: b33c 303e 988a 113e 66ba a53c 196d 193e
000000d0: a04b 373e 7957 a83c 3b5c 983d 13ca cd3d
000000e0: 8828 5a3d 841c 353e 6697 863d 2526 903e
000000f0: a5e4 003f 0d92 1f3e d439 2a3e 5e7f dd3d
0.07055532 0.101801835 0.206657 0.16102251 0.17913356 0.11484369 0.062946245 0.032668047
0.09619044 0.060839944 0.1414217 0.14405292 0.035900146 0.26295894 0.04150316 0.23613982
0.13737187 0.15091373 0.00317656 0.3415865 0.05186708 0.028045349 0.41171214 0.2524019
0.3812405 0.04955834 0.1582103 0.16926485 0.025742901 0.35199642 0.05109302 0.035885915
0.07182294 0.18141426 0.057386044 0.16895454 0.106074415 0.53294474 0.026219882 0.13600239
0.21025427 0.10420581 0.10467795 0.06839055 0.4231885 0.10285731 0.045437187 0.0636004
0.17210655 0.14213026 0.020230483 0.14983024 0.17899942 0.020549523 0.074394666 0.10048308
0.05326131 0.17686659 0.06571846 0.28154102 0.50348884 0.15583058 0.16623622 0.10815309

weight f4 [32, 64]
00000000: d3fa 2a3e 49bb a5bd d285 62bd 346c 48be
00000010: b7a9 a4be 1f7e 16be 6866 463e 1218 193e
00000020: 8180 f93d 49b1 ff3c 8f97 e43d 1ea9 863e
00000030: 596a b3bd 654f b7bd a5df 18be 1672 083e
00000040: d3b1 823d f7cd 32be 5aad 33be a011 d4bd
00000050: 7fa9 503d e987 b23d 91e7 acbe 8b32 20be
00000060: a74e b1bd 2d82 17be c437 13bd 3f43 413e
00000070: 150a 333e 389e 15be c46a 0abe 004a 0fbf
00000080: bf4d 9f3c 719e 163d e903 b53d e64a 9abd
00000090: 76b0 073e 69e6 45bd 8ac0 3ebd 50c9 0ebd
000000a0: b389 ff3c ba6d bbbe 78d1 d0bc 42ba 52be
000000b0: bb80 33be 814d 243e b37b c03c dfd2 453e
000000c0: 23cf 483e 3e74 a8bd a763 d1bd 8e3f 233e
000000d0: 0016 183d 4b8c e63d e9d0 003e 0813 e7bd
000000e0: d5b4 0f3e bd6e 353e 68b3 0b3d ce34 d9ba
000000f0: e146 9fbd 4ab8 ff3d ca11 7bbc b571 8b3d
00000100: b5a4 01be 58e4 9dbd 6fd5 793e d311 2b3d
00000110: 5b6b 1fbe 66ff c0bd b44b d8bd 76b0 bd3d
00000120: b79d 2ebe 4e43 183e d76f 4ebe d4c5 963d
00000130: b17b df3d ec04 39bd 390c 72be 152c 78be
00000140: 6c04 933d 7396 103e 9337 87be 916c a6bc
00000150: dbec 1b3e 911d 35bc 7aaa eabd 1ed2 0b3e
00000160: a8aa 333c b001 18be 6c02 d8be afee 4abe
00000170: 53c1 90bd 50c1 18be f801 a8be ab4d 6c3e
00000180: bf28 83bd fae2 f3be 99f4 1fbe cc99 43bd
00000190: af62 453e 3f40 fbbc 3816 1d3e e018 093d
000001a0: 9c74 13be 231a bf3d 1ee9 023e baa8 f23d
000001b0: 6f46 593d 2fb8 883c c97e 943d ad52 883d
000001c0: d910 abbc 220f 353e 0030 1bbe af1b a03e
000001d0: 8bf3 9d3e d52b 4b3d 3275 813d 8dc6 00bd
000001e0: 03fd d2bd ee76 e6bd d13c d7be bc97 84bd
000001f0: 207b f63c a5e6 113d 9dc3 0c3d 39d1 d43e
00000200: 2f85 44bd 62ba 893a d8be 8f3d bc69 c03d
00000210: b150 b53d d725 823e f59e 9ebd 66b4 fbbc
00000220: 352a 0fbe e23e 233e 5173 fbba 5103 a6be
00000230: 231a adbc 2471 3fbe 6057 903d 8acf f43d
00000240: 9817 52bd f197 7e3d 361a 1ebe fcad 66be
00000250: d365 7ebd dbd9 033e 0d43 a53b 06e6 bfbc
00000260: e235 17bc 9806 96bd 33c6 f53d 0a92 8a3e
00000270: bc66 103f 38c3 d0bd 639c 143e 9954 003e
00000280: ea14 bdbd 6337 c23d e62c da3c 86fa e4bc
00000290: 4123 99be e4b7 5dbd cc55 93be 26fc e2bd
000002a0: 811c 3ebd 96a1 193e 026c c4bd a90e e0bc
000002b0: 1b83 26be 06b4 b13d 3bf1 98bc 122c 52be
000002c0: 6ac1 0b3c c694 c2be cab4 afbd e116 6e3e
000002d0: 412e 19be 3c86 32bd 1076 9d3c 0adf babe
000002e0: 88a1 133e fd52 663e 9569 1cbc 860f 24bd
000002f0: de59 39bb 5582 a3bd 6ef2 36bd 6f9c 17be
00000300: dad6 423d 118d 9fbd eb7f 84bd 452c 843c
00000310: 5714 eebe 59e0 2b3b e0c4 123e 8b7b 31bd
00000320: d434 843e 9e03 d9bd b363 493e ec41 3a3d
00000330: 36e5 0dbe 4e29 6d3d c7b7 33be 304c ba3d
00000340: 7ee7 f0bd cdad ac3d 5543 9dbd 5c44 d53d
00000350: 799e d33d 132e cc3e 5ae7 76be 2d2c 72be
00000360: 87aa 223d 0615 bbbe 7e04 a7bd 3252 40bc
00000370: 3846 6f3d 2756 d6bc 494d 523d 70cf 89be
00000380: 480d 303e 7d2b e93d 75e9 c7bc 822c 8fbe
00000390: 77a5 9e3e 6ad9 f73c 4f75 c1bc eb39 d53c
000003a0: beaa e93d 9968 e73a 96c0 3cbe 921b 35bd
000003b0: fac9 3c39 9681 06be 5c2a 16be ed14 abbd
000003c0: 76e8 373e 9961 4e3e 3507 44bd 08e5 8e3d
000003d0: 92ee 823d d300 babd bfd6 4e3e f9bd bcbc
000003e0: 03d4 21be 1873 90bc f7a5 03be 2a2a 7dbe
000003f0: c448 073c 49aa 173e a2db 263e f9bd 873e
0.16697244 -0.080923624 -0.055303402 -0.19572526 -0.32160732 -0.14696549 0.19375002 0.14950588
0.12182713 0.031212466 0.1116172 0.263009 -0.087605186 -0.0895069 -0.14929064 0.1332477
0.063815735 -0.17461382 -0.17546597 -0.10354924 0.050942894 0.08717329 -0.3377042 -0.1564428
-0.0865758 -0.14795752 -0.035941854 0.18873309 0.17484315 -0.14611137 -0.1351729 -0.5597229
0.019446252 0.036772195 0.088386364 -0.07533817 0.13250908 -0.04831544 -0.04657034 -0.034859955
0.03119359 -0.36607152 -0.025490507 -0.20578864 -0.17529576 0.1604519 0.023496484 0.19318722
0.19610266 -0.082252964 -0.10224085 0.15942213 0.037130356 0.112572275 0.12579693 -0.11282927
0.14033826 0.17718025 0.034106642 -0.0016571523 -0.07777191 0.12486322 -0.015324065 0.06808797
-0.12660487 -0.07709569 0.24397825 0.041765045 -0.15568297 -0.094237134 -0.10561314 0.09262173
-0.17052351 0.14869425 -0.20159851 0.073619515 0.10912264 -0.04517071 -0.23637475 -0.24235566
0.07178578 0.14119892 -0.26409587 -0.02031544 0.15227072 -0.011054412 -0.11458297 0.13654372
0.010965981 -0.14844394 -0.42189348 -0.19817613 -0.07068124 -0.14917493 -0.32814002 0.23076503
-0.06404256 -0.47634107 -0.1562065 -0.047754094 0.19275926 -0.030670283 0.15340507 0.03347099
-0.14399952 0.09331157 0.1278424 0.11848588 0.053045686 0.016689388 0.07250745 0.06656394
-0.020882057 0.17681554 -0.1515503 0.3127112 0.3084987 0.04960235 0.06321181 -0.031439353
-0.103021644 -0.11253153 -0.42038587 -0.064742535 0.030088007 0.03562035 0.03436624 0.41565874
-0.047978576 0.0010507817 0.070188224 0.09395167 0.08853281 0.25419495 -0.077451624 -0.03072567
-0.13980944 0.15941957 -0.0019184147 -0.32424405 -0.021130627 -0.18695503 0.070479155 0.119536474
-0.051292032 0.06215662 -0.15439686 -0.22527307 -0.062108826 0.12876074 0.0050433935 -0.023425113
-0.009229155 -0.073254764 0.12000694 0.27064544 0.5640676 -0.10193485 0.14512782 0.12532271
-0.09232505 0.094832204 0.026632737 -0.02795149 -0.2990971 -0.05413045 -0.28776395 -0.1108325
-0.046413902 0.15003046 -0.09590913 -0.02735074 -0.1626095 0.08676915 -0.018669715 -0.20524624
0.00853 -0.3800413 -0.08579405 0.23250915 -0.1495905 -0.043585047 0.019221336 -0.3649829
0.14417088 0.22492595 -0.009546657 -0.040053867 -0.0028282325 -0.07983843 -0.044664793 -0.14805768
0.04756818 -0.07790578 -0.06469711 0.01613439 -0.46499893 0.002622625 0.14332914 -0.04333071
0.25821555 -0.10596393 0.19666938 0.045473024 -0.13856968 0.05790072 -0.17550574 0.09096563
-0.11762904 0.08431587 -0.07678858 0.10413429 0.10332961 0.39878902 -0.24111691 -0.23649664
0.03971341 -0.36539477 -0.08155154 -0.011738347 0.058416575 -0.026164128 0.051343236 -0.26916075
0.17192566 0.11385248 -0.024403313 -0.27963644 0.30985615 0.030255038 -0.023615507 0.026028594
0.114095196 0.0017655074 -0.1843284 -0.044215746 0.0001800432 -0.1313537 -0.14664596 -0.08353601
0.1795977 0.20154418 -0.047858436 0.06977278 0.0639316 -0.090821885 0.20199107 -0.023039805
-0.15803532 -0.017633006 -0.1285628 -0.24723116 0.008257095 0.14811052 0.16294721 0.26512125

bias f4 [32]
00000000: efaf 81bc 6af6 e03d 1f3b 7a3d 776b b33c
00000010: f07a 0c3e a5f8 7dbe adab 8e3e 2f87 94be
00000020: 5d65 43be 49e6 883e 1a60 6fbe 7085 b8be
00000030: a9e3 e2be 104d 6fbe f052 e8be e1c1 b73e
00000040: d99a d93d 1156 d93d 6ba8 833d 6748 da3e
00000050: 0660 d5bd 480c 2b3e 6d7c 383e 51df c0be
00000060: 0f93 e5be 93bb 933d 6e29 b03e 5ed5 583d
00000070: 1f82 bd3e 09a9 d1bb 4910 593e e716 a93e
-0.015830962 0.109845 0.06109154 0.02190183 0.13718772 -0.24801882 0.27865353 -0.29009387
-0.19081636 0.26738194 -0.23376504 -0.36039305 -0.44314316 -0.23369241 -0.45375776 0.35890105
0.10625238 0.10612119 0.064286076 0.42633364 -0.10418706 0.16703904 0.18016215 -0.37670377
-0.4483876 0.07213511 0.34406608 0.052937858 0.37013337 -0.0063983244 0.21197619 0.33025286

weight f4 [1, 32]
00000000: 47b2 5abe aa41 b5be 4952 84be 170c 62be
00000010: 6f2e 9abe fb90 373e e6c2 83be a47c 3e3e
00000020: a857 82be 53c8 53be 603b 6f3e 3b31 a23d
00000030: 6329 8d3e 0467 303e d68b a93e 6d2d a6be
00000040: 437d 56be 29db 65be 152b 8fbe 95a6 4dbe
00000050: 04f2 98be 8289 47be 9c08 94be 5125 2a3e
00000060: f2ed 823e 2798 44be e272 69be e46f 67be
00000070: e959 29be 74f9 97be cab2 20be 94d9 45be
-0.2135707 -0.3540166 -0.2584403 -0.22074924 -0.3011355 0.179264 -0.25734633 0.18602234
-0.254575 -0.20681886 0.23362494 0.07919546 0.27570638 0.17226797 0.331145 -0.32456532
-0.20946221 -0.22446884 -0.27962556 -0.20083077 -0.29872143 -0.19486049 -0.28912818 0.16615798
0.25572163 -0.19198667 -0.2279773 -0.22601277 -0.16538204 -0.29682505 -0.15693203 -0.1932128
