mlruns/1/models/m-02d1ce52f4e34a0aa24c5759a2288c5c/artifacts/data/model.pth (torch, 19095 bytes, 9 tensors)

weight f4 [64, 15]
00000000: f482 73be 5f86 e9bd be8e 91bd 34c8 58be
00000010: 44cb 89be df34 8ebe f3ce 79bb 17ea f3bd
00000020: 091b 993e 4234 babd 0cd4 6a3e b576 313e
00000030: 6ec5 283e ef16 a1be 55a5 eebd 1c2f 583c
00000040: 5aed 83be 9a9c 043c 2838 0bbc da11 b33b
00000050: f5e5 1f3d dfa0 bdbb 5cff 6a3e 16c2 39bc
00000060: de94 cd3c bebc 9cbc b88e 263f 36c0 8abb
00000070: c220 343d 8ea2 70bc d8d0 dc3e 5efd 5b3e
00000080: 8079 5e3c bf35 0abe 5c5e f2bc 7996 b3bc
00000090: 173e 4abe 3df9 d93c 97e1 d5bc df8d ffbc
000000a0: 7b78 9bbe c030 13be 750b 673e bf95 d9bd
000000b0: 791c 25be b340 dc3d a9ec 21bf 6d5d 9bbd
000000c0: 4a0e 0f3e ee92 bdbd f8c5 073e 8244 993d
000000d0: 1789 993e f561 2f3c 56f1 853b 4e8b c33d
000000e0: c747 e4bc 6176 8039 aa5b 903e 8c3d e2bd
000000f0: 8eed 03be 4084 b0be 8e99 d33c c028 95be
00000100: d1b3 a43e 6285 97be 746e a93c 9838 4e3e
00000110: 28a4 d6bd 1751 033d 360b 2fbe 1cca 643e
00000120: 8b2b 833e 96f3 603e 7140 ffbd af7a 483e
00000130: 8424 b6be fa8a d73c 2619 1d3e fa47 973c
00000140: 5659 303c 2454 ea3c b040 6f3d bc39 c7bc
00000150: 266d e2bd c25e 17be 14f3 763e 8463 fa3d
00000160: 2ba5 353e e972 01bd 5906 a03c a270 eb3e
00000170: da2c bebb ccf0 e03c d6c5 31bc 457a 97bc
00000180: 185c 54bc 0a69 b33e f5ef 54bc 4ee2 343c
00000190: 2f3e c53b 739d d7bd f557 00b9 f139 abbe
000001a0: c566 45bc f116 4e3e 254a 7e3d d0c0 cb3d
000001b0: f01f 023e 38f5 d03b b47b 82be 0c2e 943e
000001c0: 3a8c cebd f1a5 1d3e e79f de3d 9a12 153d
000001d0: 7d21 54be 605a cb3d 30c4 38be 2cd2 33be
000001e0: 5d0e 333e 8067 523e b7ca 863e eb52 6ebd
000001f0: a817 7ebe efa3 903e 1b7e 1a3d bd18 54bd
00000200: 6c0b 243e b977 4e3e c235 b1be 37f3 f6bc
00000210: c6f1 e9bd 4afb 32be 34d2 613e 131a 963b
00000220: 7805 073d d07d 3a3e 4d93 adbd 6945 7ebe
00000230: 17fe 5bbd 3a97 fbbd 39ad a0be d8dc 9bbe
00000240: a84a 3b3e 4985 0e3e 7d59 9cbe ad03 3a3d
00000250: 455d 463e 0bc8 8fbd 6581 d23d 7e04 94bd
00000260: 0dfb a53e 9b68 82be 513a b93e addc 13bd
00000270: 1965 7bbe d452 b3bd 2cdf 633d 20e7 adbd
00000280: 0e02 40be b8f3 9e3e 0815 033d 4432 30be
00000290: d6d4 60be 7da5 4abd 5eee 39bf 7edc 7bbd
000002a0: 7307 73bc ccaa e93b 8322 1c3e 82ad debd
000002b0: 4838 43be 2ffa c63a d879 89bd 5b86 05be
000002c0: eec2 853e 5e09 e7bb 07e5 a03e 5d1d d5bc
000002d0: a81a 39be 0f0d bebe 2f62 ce3d c45b 82be
000002e0: 5e72 88be c146 0b3e d886 f2bd a2e3 553e
000002f0: 6c31 d33d 202c 77be 7521 82bd 098a 5bbd
00000300: 6a19 c6bb 05bf b13e 19e2 303e bbb7 0fbd
00000310: b2e6 ee3e 1781 9d3b 7f66 4dbc 4467 2e3d
00000320: b014 49bb cc8b 37bb 3fe9 4a3e 51fc a5bc
00000330: 57d3 02bd 5a47 533d cc80 c5bc 3625 573c
00000340: d0b8 6bbe 4e00 febb 6b1e c53e 3d84 4ebc
00000350: b729 e43d 4e5d 0ebe 6bab c4be 3441 d93d
00000360: c0e5 38be 099a 0ebe e7e0 6fbe 8fd9 7e3d
00000370: d384 8b3e e038 80bc 4fdc 27be 6c13 abbe
00000380: f957 7d3b 276e 99bd f517 303e 6294 8b3d
00000390: 8009 933d 02ba a8bd c4e7 b4bd 55ed 99bd
000003a0: 73a1 98be 3d3f dfbd d3f4 96bd 322b a7bd
000003b0: a73d 05be ee8d 8c3e d237 033e 2557 50ba
000003c0: db76 e63c 3266 f9be 295d ed3d e986 ba3c
000003d0: 8086 d3bd a630 1a3e 83f2 91bd 924d eebd
000003e0: 70ec e4bd 8a44 263b ba56 333d 7847 733e
000003f0: 8177 adbd 48ad 863e f5f2 7fbe e405 d83c
-0.23780423 -0.114025824 -0.07107304 -0.21170121 -0.26912892 -0.27774712 -0.0038117736 -0.119098835
0.2990344 -0.09091999 0.22932452 0.1733044 0.16481563 -0.3146281 -0.11652628 0.0131948255
-0.25767022 0.008093977 -0.008497275 0.0054647746 0.039037663 -0.0057869996 0.22948974 -0.011337778
0.0250954 -0.019132968 0.6506152 -0.004234339 0.043976553 -0.014687194 0.43128085 0.2148337
0.013578773 -0.13497065 -0.02958601 -0.021922337 -0.19750248 0.026608104 -0.026108546 -0.03119558
-0.30365357 -0.14374065 0.22562964 -0.10624265 -0.16124143 0.10754528 -0.6325174 -0.07586179
0.13970295 -0.0925654 0.13259113 0.0748377 0.29987404 0.010704507 0.0040876074 0.09548055
-0.027866257 0.00024502262 0.28194934 -0.110468954 -0.12883589 -0.344759 0.025830057 -0.29132652
0.3216844 -0.2959395 0.020682551 0.20138776 -0.10480529 0.032059755 -0.1709412 0.22342724
0.25619158 0.2196792 -0.12463463 0.1957805 -0.35574734 0.026311386 0.15341625 0.018466938
0.010763487 0.028604575 0.0584113 -0.024319522 -0.11055975 -0.14782241 0.24116164 0.12226012
0.17738788 -0.031603727 0.019534277 0.4598437 -0.0058036866 0.02745857 -0.01085039 -0.01849092
-0.01296141 0.35041076 -0.012996663 0.011040283 0.0060193758 -0.10528078 -0.00012239798 -0.33442643
-0.012048428 0.20125939 0.06208243 0.099488854 0.12707496 0.0063768886 -0.25485003 0.2894138
-0.1008534 0.15395333 0.10870343 0.036394693 -0.207159 0.09929347 -0.1804359 -0.17560643
0.17485948 0.20547295 0.26326534 -0.058184545 -0.24813712 0.2825007 0.03771792 -0.051781405
0.16019982 0.20162858 -0.34611326 -0.03014527 -0.11423068 -0.17478672 0.22052842 0.004580745
0.0329642 0.18212056 -0.08475361 -0.24831165 -0.053709116 -0.122847036 -0.31382158 -0.30441928
0.18290198 0.13918032 -0.30537024 0.04541366 0.19371517 -0.07020577 0.10278586 -0.07227419
0.324181 -0.25470433 0.36177304 -0.036099125 -0.24550284 -0.087560326 0.055632755 -0.08491349
-0.18750784 0.31045318 0.03200248 -0.17206675 -0.2195619 -0.04947423 -0.72629344 -0.061489575
-0.014833319 0.0071309563 0.1524754 -0.10872938 -0.19064438 0.0015180762 -0.06712693 -0.13039534
0.26125282 -0.007050677 0.31424734 -0.026014978 -0.18076575 -0.37119338 0.10077321 -0.25460637
-0.26649755 0.13601209 -0.11842126 0.20887616 0.10312161 -0.24137926 -0.06354038 -0.053598437
-0.00604551 0.3471605 0.1727375 -0.03508733 0.46660382 0.0048066485 -0.012536644 0.04257895
-0.0030682497 -0.002800691 0.19815539 -0.020261915 -0.03193983 0.051581718 -0.024109267 0.01313143
-0.23019719 -0.007751501 0.3849977 -0.01260477 0.11140769 -0.1390278 -0.38412032 0.1060814
-0.18056393 -0.13925947 -0.23425637 0.0622192 0.27249774 -0.01565212 -0.16392635 -0.33413255
0.0038657172 -0.07491713 0.17196639 0.06815411 0.07179546 -0.08238603 -0.08833268 -0.075159706
-0.29810676 -0.109007336 -0.07370915 -0.08162536 -0.130118 0.27452034 0.12814263 -0.0007947556
0.028132847 -0.4871078 0.115900345 0.022769408 -0.10328388 0.1505762 -0.071263336 -0.11635889
-0.111779094 0.0025370442 0.04378388 0.23757732 -0.08470059 0.26304078 -0.24995025 0.026369996

bias f4 [64]
00000000: 5a72 9bba 0421 bcbe 36f8 10be 684e 95bd
00000010: 9a07 6dbe 338f b4be b894 37bf b017 f73d
00000020: 69ca 3a3e 02ce 76bc 477c 66be f7ce 033e
00000030: 63e8 2cbe 4f1e 39bf 7600 9dbe 1790 c9be
00000040: 67f0 b93d 8c4f c7be 15a2 e6be 86e4 e0be
00000050: 074d 4abe 6ea2 2cbc 7ac4 36bf ef1e 56be
00000060: a243 013d d9e4 bfbd b520 1e3e 7a2c a73e
00000070: 34ce acbe 3c7d 43bf 42fd c73e 0067 41bf
00000080: 402b f7bd 5065 36be d94a a9bd 0777 adbe
00000090: f07a 7abe 2e90 73be 1fd1 ac3d 7887 84be
000000a0: 3a79 f43d 5363 9cbe 6027 713e 327c 71bd
000000b0: 4cd8 85bd 1695 833e 8748 b9be c0e5 843c
000000c0: 6591 0bbe b6c0 693e 9755 8dbe d6f6 01be
000000d0: 0f80 58be f24b 07be c59e 76be 8327 1bbe
000000e0: 724f 63be 1979 48be 2d73 793e 9e4e 4e3e
000000f0: e2e6 8dbe cab1 adbe 1b55 d8be 729e 40bf
-0.0011859641 -0.3674394 -0.14157185 -0.072903454 -0.23147431 -0.35265502 -0.717113 0.12065065
0.18241276 -0.0150637645 -0.22508346 0.1287192 -0.16885523 -0.7231187 -0.30664414 -0.39367744
0.09079056 -0.38927877 -0.45045534 -0.4392435 -0.19755946 -0.010536773 -0.7139355 -0.20910238
0.03155864 -0.09369821 0.15442164 0.3265112 -0.3375107 -0.7636297 0.39060408 -0.7554779
-0.12068796 -0.17812085 -0.08266229 -0.33879873 -0.2446096 -0.23785469 0.08438324 -0.25884604
0.11937185 -0.30544528 0.23550177 -0.058956333 -0.06535396 0.2569968 -0.36188146 0.016222835
-0.13629682 0.2282742 -0.27604362 -0.12691817 -0.211426 -0.13212565 -0.24084003 -0.15151791
-0.22198275 -0.19577445 0.24360342 0.20147178 -0.27715212 -0.33924705 -0.4225243 -0.7524177

weight f4 [64]
00000000: dd68 953f fc83 af3f 695e 933f 5d16 723f
00000010: de31 983f 00a9 923f 8616 cd3f 27fc 8f3f
00000020: 169e 9e3f ec68 8e3f 978f 513f b819 983f
00000030: c15a 853f d76a c73f fd5b a23f 42c6 a53f
00000040: 14fd 8a3f 6d84 a33f 09ca 9d3f 9b67 8e3f
00000050: 95d4 b83f de60 8f3f 8bb8 c53f 0dda b53f
00000060: eaf3 993f 9dd1 863f f831 b83f 9e47 7c3f
00000070: 8a04 6d3f 0a6b b13f a893 823f 9d30 d03f
00000080: 6f16 903f 1cd5 8e3f 3fb0 8e3f 9a60 903f
00000090: c12d 993f 2286 bd3f 127b a03f 9630 b03f
000000a0: 6263 8b3f 3643 9d3f d2ac 803f 9a2a 823f
000000b0: 890c 833f 2643 963f 5635 9a3f 160c 9d3f
000000c0: baea 9d3f bc6b 843f f8aa a13f e037 723f
000000d0: e1cf a23f 5936 5e3f 3728 ad3f 5697 963f
000000e0: 7e6e a63f 903a 973f 59bc 8d3f 4d05 9b3f
000000f0: 70a7 873f 100f b83f 3c46 983f f4f3 c33f
1.1672627 1.3712153 1.1513187 0.94565374 1.1890218 1.1457825 1.6022499 1.1248826
1.2391994 1.112577 0.81859726 1.1882849 1.0418321 1.557948 1.2684323 1.2951128
1.0858483 1.2774788 1.2327281 1.1125368 1.4439875 1.1201437 1.5446943 1.4207169
1.2027562 1.0532719 1.4390249 0.9854678 0.9258505 1.3860791 1.0201311 1.6264836
1.1256846 1.1158786 1.1147536 1.127948 1.1967088 1.4806559 1.2537558 1.3764827
1.0889704 1.2286136 1.005274 1.0169251 1.02382 1.1739242 1.2047527 1.2269313
1.2337258 1.0345378 1.26303 0.9461651 1.271969 0.8680168 1.3527898 1.1764934
1.300247 1.1814747 1.1073104 1.2110993 1.0597973 1.4379597 1.1896434 1.5308824

bias f4 [64]
00000000: 954a 8c3d 62bd a73e 811b 863d 52a0 7fbe
00000010: be2e 1fbe 1a6d 8cbe 852c bc3d 72a8 1e3e
00000020: 6c2f 9f3c 435a 013f 014a 72bd 871f c53d
00000030: 7c04 39be 3fa1 10be a5f0 1bbd 5b05 da3e
00000040: a435 81bd 5543 1a3e 70aa 70bd cc11 3abe
00000050: f492 443e 4655 f5bd 36e6 bfbd 8a6a d93e
00000060: 23c1 af3d cec2 a6bd ad69 023e c092 963d
00000070: 83a4 9aba 5a31 a1be d727 843c fe9b 0d3e
00000080: 3e48 c2bd 76be 153e 05f5 1dbe 130a 46be
00000090: e398 a43e e4f7 813e b763 163e b409 3e3e
000000a0: 62a7 96bc 586f 6b3d fa74 ac3e 17e5 033e
000000b0: b0e2 ca3d 0f71 893e 6bc7 0e3e b9d9 5c3e
000000c0: 4d5b ea3e 1953 193f d766 893e 1987 88be
000000d0: 0637 593e 18c0 4dbe 1f05 973e 8771 2fbe
000000e0: 7d89 683d aafc 4a3e c123 e23e 2b4b b53e
000000f0: 181f cc3e 91dd fb3d 9845 c5bd 6373 143d
0.06850163 0.32761675 0.06548215 -0.24963501 -0.15545174 -0.27426988 0.09188179 0.15493944
0.019431792 0.50528353 -0.059152607 0.09625154 -0.18068117 -0.1412401 -0.038071293 0.4258221
-0.06309059 0.15064748 -0.058756292 -0.18170851 0.19196683 -0.11979155 -0.09370081 0.42464095
0.0858176 -0.08142625 0.12735625 0.07352209 -0.0011798296 -0.31482965 0.016132278 0.13829038
-0.09486435 0.14623436 -0.15425499 -0.1933978 0.32147893 0.25384438 0.14686476 0.18558389
-0.018390361 0.057479233 0.33682996 0.1288036 0.099065185 0.2684407 0.1394326 0.2156743
0.45772782 0.5989242 0.26836273 -0.2666557 0.21212396 -0.20092809 0.29496095 -0.17133151
0.056771744 0.19822946 0.44167903 0.3540891 0.39867473 0.1229812 -0.096324146 0.036242854

running_mean f4 [64]
00000000: b3cd 893e b79a 223e d899 7b3e d15a 963e
00000010: df2e 6d3e 7eaa f33d c156 ef3d 193c a23e
00000020: 7dfb cd3e 08f6 a53e 5544 543e 4ee4 143f
00000030: 5010 6d3e ca3a ea3c 4556 3b3e d4e2 9a3d
00000040: c368 dd3e 6cb8 ed3d 6453 1a3e e490 8d3d
00000050: f6cb 3d3e 6956 863e f4fd 313d 593f 4b3e
00000060: 8314 993e 1abe af3e d348 b53e 6bbc f53e
00000070: fe0f d93d c7e0 1c3d c5be 2c3f 7b3d 5d3d
00000080: 3eef 9c3e 7549 5d3e bf6e 893e e6af 1a3e
00000090: b3e5 4a3e b9eb 863e e51b bc3e 9184 123e
000000a0: 28f9 f73e dd5b 1e3e b937 e33e df02 883e
000000b0: 7853 963e 7a70 063f 8455 0b3e 1d57 a53e
000000c0: a2f6 883e 7332 1f3f 64e1 813e 372d 533e
000000d0: 397c 453e 6797 653e 76f4 603e bf44 6f3e
000000e0: 51c2 273e 5f48 a13e bf93 353f eb75 0a3f
000000f0: 43fa da3d b7fc 4a3e aa61 0c3e cdc7 a93d
0.2691475 0.15879332 0.24570405 0.29366162 0.23162411 0.11897753 0.11686469 0.31686476
0.40230933 0.3241427 0.20729192 0.58160865 0.23150754 0.028592486 0.18294628 0.07562795
0.4324399 0.11607441 0.15070873 0.06912401 0.18534836 0.262378 0.04345508 0.19848384
0.29898462 0.34324723 0.35407123 0.47995314 0.105987534 0.038300302 0.6747859 0.05401371
0.30651277 0.21610053 0.26842305 0.15106162 0.19814186 0.26351717 0.36740032 0.14308383
0.4843228 0.1546473 0.4437845 0.2656469 0.29360557 0.52515376 0.1360684 0.32293025
0.26750666 0.62186354 0.25367272 0.20622717 0.19285668 0.22421037 0.21968254 0.23366068
0.1638272 0.31500527 0.7092857 0.5408618 0.10692265 0.19822966 0.13709131 0.08290062

running_var f4 [64]
00000000: 6b57 2e3e 1ff6 7c3e ecf3 253e 21d6 393e
00000010: a8b4 323e 7d02 a03d 9be5 863c a247 2b3e
00000020: bb55 7b3e e494 433e 9521 1a3e d1a7 f13e
00000030: f326 153e 31e7 5f3b 09bb f93d 3c89 043d
00000040: 6e64 953e 97a0 2e3e a85a cb3d 36b1 fe3c
00000050: 1d5e e13d 62a1 1f3e 6168 ca3b ee39 003e
00000060: e93b 353e 666e 713e 2aa9 4d3e be45 bf3e
00000070: b968 643d 1fcb ab3b aea1 0c3f 7e8b 013c
00000080: 4e95 403e 1a3b 9f3e 7ba3 383e 7326 cb3d
00000090: c0e5 ff3d d063 933e 846d 833e a80b 9b3d
000000a0: e675 b03e c8f7 be3d 544a 7c3e ef43 2a3e
000000b0: 1352 ec3e 686a c03e caa9 553e cb5b 583e
000000c0: 951a 193e 8843 c53e 9738 293e 0c51 043e
000000d0: 8cb2 043e 2f4d 1a3e a59e 153e 8bb8 153e
000000e0: cc23 aa3d 623e 1c3f e4d5 063f d232 b43e
000000f0: a59b 563d 0e50 363e 1a21 b63d f029 243c
0.17025535 0.24703263 0.1620633 0.1814809 0.17451727 0.078129746 0.016466906 0.16726544
0.24544422 0.19099766 0.15051873 0.47198346 0.14565639 0.00341649 0.12193877 0.03235744
0.29178184 0.17053448 0.09929401 0.03109036 0.11004279 0.15588906 0.0061769937 0.12522098
0.17698635 0.2357727 0.20084062 0.37357897 0.055763934 0.00524272 0.54934204 0.007906793
0.18806955 0.31099778 0.18031113 0.09919443 0.12494993 0.28787088 0.2566949 0.07570583
0.3446495 0.09324604 0.24637729 0.16627477 0.46156368 0.37581182 0.2086555 0.21128766
0.14951546 0.38528085 0.16525494 0.12921542 0.12958735 0.15068506 0.146113 0.14621179
0.08307609 0.6103269 0.5267012 0.35195023 0.052394528 0.17803976 0.08893032 0.010019764

weight f4 [32, 64]
00000000: 3fb0 44bd 3eb7 84bc 2aa8 8e3e 4412 a83d
00000010: f0c3 cf3c 4f1c 7fbd 0dce c8bc 3996 713d
00000020: 9438 243e 0185 5cbd 7698 ffbd 4bfa 35bc
00000030: 3455 85be 3479 cbbe 91a8 b9bc 380f 323d
00000040: 551d f8bd 71a3 cebd 2e4f 4fbd 79d6 b43d
00000050: 17bb 14bf 0a75 8abd 087f 273e 5228 7abd
00000060: 07a1 8abe 6f5c 23be ed74 3bbe f26c 503e
00000070: 81bd cdbd fd34 8dbe 7db8 58bd 3b11 353e
00000080: 0f5f c3be e316 7bbd 36c4 0abc 8a4c 233e
00000090: 849a 1b3e fd01 cabe 40b0 5dbe 0c79 bc3e
000000a0: 6f8b ab3b ba01 e93d 5301 fbbd bdd0 0e3e
000000b0: 310c b9bc 0989 e33c eb4e 1bbd 78ec 99be
000000c0: d263 85be af79 dbbd 3f8f 853d a9d3 f93c
000000d0: 76fc 7dbd 2b62 fbbd 967c ab3d 4127 a93d
000000e0: ee51 9bbe 4233 a4bd d8ad 94bd e2f6 a93c
000000f0: 50ca 253e e90c 1cbe bb9e efbe ad57 de3d
00000100: 11aa a3be 9caa 0ebf 6462 3bbe ed22 1a3d
00000110: 43b6 073d bc95 79bd 5508 f8bd 5c31 8cbe
00000120: 9426 523e f344 d9bc 98a7 c0bd 4940 193e
00000130: d31e 853e 22ab 47be 62ee 6d3d 9a82 97be
00000140: 4e8b 533e 0329 f0be 668f 07be 8ae5 f0bc
00000150: 86ee cabd 184e 31be 2a79 6ebd 244a 7bbe
00000160: bece 0ebe bb57 2e3e f484 d0bd a5d5 fabd
00000170: 6988 82be 6975 54bd 44e3 083e 67e4 8ebd
00000180: 52e1 663c d1bd f2be bc54 223d cfc6 3dbe
00000190: f123 dbbd a10f c0bd 129c fb3d 6205 9abd
000001a0: 48e1 9e3d 42d3 863d ce46 54bd 8546 02be
000001b0: 7b6e 96be e7e3 8c3c a2a9 cbbe c3e6 0dbd
000001c0: e6f3 39be a421 d5bd f071 4f3d dab5 59be
000001d0: 2d84 35be e8ea 70bd 4992 46be 2f73 303b
000001e0: 008e 9f3e 93cb d3be 20db 0cbe 6505 10be
000001f0: ac52 963e 76ad 5b3e 1d90 cabc 8021 73be
00000200: 94ea 05bc d531 8d3c 0f9a 133e 28bf a9bc
00000210: c3f9 58be 70bf 583e d80d 743d ded7 98be
00000220: 886a 323e d5f6 46be 0caa 853d f0e2 823d
00000230: d0d5 143e 2ebe 36be fc20 8c3d bd32 4bbe
00000240: a077 883d f412 a5bd 3d14 7e3e cd58 a4bd
00000250: 8658 c5bd f39e 2ebd 4339 9d3d 50b5 013e
00000260: 01a6 5bbd e1da 663d 0b69 f73d dcf7 c73d
00000270: cbb3 133e 1ba6 9abe 7ad4 3bbd 72a4 d13d
00000280: 1a92 5dbe 3cec 4bbd 0d12 5d3c d122 853d
00000290: 70af 51be b5af 12be 7cd5 10be 6dee 133d
000002a0: 77d5 0bbd 825a 62be 7592 1f3d c757 983c
000002b0: 2895 8e3d 5258 cbbc 2bea 853d 43cd 4d3d
000002c0: 9de0 74be 643c 15be ffbf 50bb 872a e3bc
000002d0: 3f8f 183d 8a0c b7bc 3e9e 6bbd ad13 323d
000002e0: 5cd2 723e 986b 24be 9f2d 8abd b24f 16be
000002f0: 85cb 2dbe c6e5 133d a204 8a3e d2b0 1a3d
00000300: 0f5b 9fbe f570 1ebf 3352 6ebe e7b3 8e3d
00000310: 42f5 c0bd 03d4 113d 828f 7fbe 1fb2 01be
00000320: 7293 413e 7230 ebbc 0672 59bd de3d 203e
00000330: 992a 3d3c 7574 a3bc 136d 4b3d 22d3 dbbe
00000340: d031 443e d560 f6be 619d e1bd 8307 93bd
00000350: 899b 4b3d 8451 b93b 0817 94be c23f 4cbe
00000360: d367 1e3e 2f9a da3d 7a4a 2abd 874c 03be
00000370: aed3 eebd 7133 29bc 2c94 013e 9ac9 b3be
00000380: d27e 2abc 2e80 d0be 160d 28be 1170 5fbe
00000390: e098 ae3d edc3 3bbd bc70 da3d 5241 5fbe
000003a0: 8cee 253e 9dcb 7e3d f23f ee3d ce79 45bd
000003b0: 9836 f2be d712 86bc 0a47 b0be 8668 de3d
000003c0: 54bf bebd aff1 d1bd bbe5 69be 8af8 223e
000003d0: caef b8bc 30a8 9a3d 0fcb 96be 0de4 fb3c
000003e0: 3a87 583d 6bd6 ecbe 98e1 d3bd e7c2 42be
000003f0: 73e5 733d 69b5 143e 7925 ebb9 891c 4abe
-0.048019644 -0.016200658 0.27862674 0.08206609 0.025361985 -0.062282857 -0.024512315 0.058981154
0.16037208 -0.05383778 -0.124802515 -0.011107038 -0.26041567 -0.39740908 -0.022663387 0.043471545
-0.1211497 -0.10089768 -0.05061262 0.0882997 -0.58097976 -0.06760605 0.16357052 -0.06107361
-0.2707598 -0.1595323 -0.18306322 0.2035406 -0.100459106 -0.2757949 -0.052910317 0.17682354
-0.3815846 -0.061301123 -0.008469632 0.15947166 0.15195662 -0.39454642 -0.21649265 0.368111
0.0052351276 0.113772824 -0.12256112 0.13946815 -0.022588821 0.027775304 -0.03791706 -0.30063224
-0.2605272 -0.10716569 0.06521463 0.030496435 -0.062008344 -0.122745834 0.08373372 0.0825944
-0.30335945 -0.08017589 -0.072597206 0.020747606 0.16190457 -0.152393 -0.4680079 0.108565666
-0.31965688 -0.5572908 -0.18299252 0.037630964 0.033132803 -0.060933813 -0.12110964 -0.27381408
0.20522529 -0.026522135 -0.09406966 0.14965929 0.2600008 -0.19498876 0.058088668 -0.2959183
0.2065861 -0.4690629 -0.13238296 -0.029406328 -0.09908776 -0.17314947 -0.05822102 -0.24540001
-0.13946053 0.17025654 -0.10181609 -0.12247781 -0.25494698 -0.051869784 0.13367945 -0.06977158
0.0140918065 -0.47410443 0.03963159 -0.1853287 -0.10700215 -0.09377981 0.122856274 -0.07520558
0.07757813 0.06583263 -0.051825337 -0.12722214 -0.29381165 0.017198516 -0.39777857 -0.0346439
-0.18159446 -0.10406807 0.05064577 -0.21260777 -0.17726202 -0.058817774 -0.19391741 0.0026924124
0.31163025 -0.41366252 -0.13755465 -0.14064558 0.2935995 0.21452889 -0.024726922 -0.23743248
-0.008173604 0.017235676 0.14414237 -0.020721033 -0.21189027 0.21166778 0.059583515 -0.29852194
0.17423451 -0.19430096 0.065265745 0.06390941 0.14534688 -0.17845985 0.06842229 -0.19843574
0.06663442 -0.08060256 0.24812408 -0.0802475 -0.09636025 -0.042632055 0.076769374 0.12666821
-0.05362511 0.056361083 0.12080582 0.09764072 0.14424054 -0.30204853 -0.04585693 0.102364436
-0.21637765 -0.049785838 0.013493073 0.06500781 -0.2047708 -0.1432484 -0.14143938 0.036116052
-0.034139123 -0.22104838 0.03895803 0.018596543 0.06962043 -0.024822388 0.065388046 0.05024458
-0.23913808 -0.14573818 -0.003185272 -0.02773024 0.037245985 -0.022344846 -0.05752396 0.043475796
0.23713058 -0.16056669 -0.06746983 -0.14678839 -0.16972168 0.0361078 0.2695666 0.037766285
-0.3112416 -0.6189111 -0.23273544 0.069679074 -0.09421779 0.03560258 -0.24957088 -0.12665604
0.18903902 -0.028709624 -0.053087257 0.156486 0.011545801 -0.019952992 0.04966457 -0.4293452
0.19159627 -0.48120752 -0.11016346 -0.07179167 0.049708877 0.0056554694 -0.2892382 -0.19946197
0.15469293 0.106739394 -0.041574933 -0.12822162 -0.116614684 -0.010327206 0.1265418 -0.35114747
-0.010406213 -0.40722793 -0.16411242 -0.21820094 0.08525252 -0.045841146 0.106660336 -0.21802261
0.1620428 0.0622059 0.1163329 -0.048211865 -0.47307277 -0.016366405 -0.34429199 0.1085978
-0.09313837 -0.102511756 -0.22841541 0.15915123 -0.022575278 0.075516105 -0.29451796 0.030748392
0.052863337 -0.46257338 -0.10345763 -0.19019662 0.05954499 0.14522327 -0.00044850612 -0.19737448

bias f4 [32]
00000000: 4634 6f3e 59c9 653e 12ae 8dbe c807 753e
00000010: 1411 923e ab06 c83d 1b6e 973d b382 1fbf
00000020: 6941 103e 5bff ab3e 4322 ac3e 01a8 0abe
00000030: f6cb 9f3e da2d 153e 1e4c 0cbf a3cb e6be
00000040: cbf7 12bf 0a1d 683e d018 d83e 2fac b53d
00000050: a8d4 bebd d6fc c53d f0f1 6f3e 6bee 6a3e
00000060: ae36 ddbe aec2 883d 7007 ae3e 96fb c23d
00000070: 7999 ba3d ab62 b5be 98b1 013e 9b39 5c3e
0.23359784 0.2244009 -0.27671868 0.2392875 0.28528655 0.09766897 0.07394048 -0.62308806
0.14087452 0.33593258 0.3361989 -0.13540651 0.31210297 0.14568272 -0.54803646 -0.45077237
-0.5740935 0.22667328 0.4220643 0.08870732 -0.09317905 0.09667365 0.23432136 0.22942512
-0.4320578 0.06677757 0.3399005 0.095206425 0.09111304 -0.3542684 0.12665403 0.2150635

weight f4 [1, 32]
00000000: 605c b7be bb35 a0be ffea b5bd 26c3 b7be
00000010: 4977 92be aaac 20be aed6 9bbe 985f ef3e
00000020: cc1e 45be 3605 41be 1bed 5abe dedf cc3e
00000030: 5319 5fbe 2b6e c6be 0878 263f 7738 b03e
00000040: 0092 923e eebd acbe 83a9 a6be abb2 13be
00000050: 1612 da3e 7535 55be e1f4 50be ce10 a0be
00000060: 97d4 7f3e d0e6 a4bd b74a 21be 747e f4be
00000070: aec2 52be 4fee 843e 8bb9 39be d059 95be
-0.35812664 -0.31290993 -0.088827126 -0.35891074 -0.28606632 -0.15690866 -0.30437225 0.4675262
-0.1925003 -0.18849644 -0.21379511 0.40014547 -0.21787004 -0.38755926 0.65026903 0.3441808
0.28627014 -0.33738655 -0.32551202 -0.14423625 0.42591923 -0.20821173 -0.20405914 -0.3126282
0.2498344 -0.080518365 -0.15751158 -0.47752726 -0.20582077 0.25963065 -0.18137185 -0.29170084
